Python/RL/vicsek/my_model/my_modeltest.pth (torch, 253991 bytes, 28 tensors)

fc1.weight f4 [64, 2]
000000 d4 90 ed 3e d5 0a e7 be 2b a3 9b 3e 39 fb be be
       0.46399558 -0.45125452 0.30397925 -0.37301043
000010 e1 67 a1 3e 22 2c c4 be 02 5a da 3c c9 54 13 3e
       0.31524566 -0.3831492 0.026654247 0.14387812
000020 3b ca 1c 3e b1 b5 32 bf 8f 37 35 be c2 59 4c 3e
       0.1531152 -0.6980849 -0.17696975 0.19956115
000030 66 80 99 3c 11 18 ce 3c a2 e6 34 3d e6 9f 16 bf
       0.018737983 0.02515796 0.04416526 -0.58837736
000040 b6 84 d9 3d 59 71 88 be 39 44 d0 3c 34 c2 8a be
       0.10621016 -0.26648977 0.025423156 -0.2710129
000050 fc 87 e9 be 9e af 8b be 1b 99 8d 3e 98 c9 f1 be
       -0.4561156 -0.27282423 0.27655873 -0.47224116
000060 cc d7 d6 3e b2 58 c9 3e 2a 10 f0 3e 6d a8 95 be
       0.41961515 0.39325482 0.46887332 -0.2923006
000070 3e 26 c6 3e 39 58 1a be c2 04 be 3e 12 e2 04 bf
       0.3870105 -0.15072717 0.37113005 -0.51907456
000080 53 e2 5a be e4 7c 31 be d1 26 3d bf 67 37 2e be
       -0.21375398 -0.17332798 -0.73887354 -0.17013322
000090 85 41 32 bf f5 5e 5a 3e c8 29 54 be bd 57 e1 3e
       -0.69631225 0.21325286 -0.20719063 0.44012251
0000a0 dc 30 0c bf b4 db ae 3e bd 21 92 3e dd 45 1d be
       -0.54762053 0.34151995 0.28541365 -0.15358682
0000b0 ed 29 29 bf 17 c3 11 be dc 8c b7 3e 0a 70 d7 be
       -0.660796 -0.14234577 0.35849655 -0.42077667
0000c0 42 1f 5c 3f 9b 07 b2 be 57 78 0c 3f 18 89 9e 3e
       0.85985196 -0.34771428 0.54871124 0.3096397
0000d0 a5 ea 92 3a f8 af f9 3d 86 d6 21 3f f0 e6 1c 3e
       0.0011208846 0.121917665 0.6321796 0.1532247
0000e0 23 94 49 be ac 6e 23 3e 7e 45 2d be 09 c4 15 bf
       -0.19685416 0.15960187 -0.1692104 -0.5850225
0000f0 3f 6c 98 bd a3 9e cd 3e 69 1b eb 3e 5d d2 e9 3e
       -0.07442521 0.40160093 0.4591935 0.45668307
000100 91 b1 9e bd bc 14 8c 3e a1 39 57 3f c4 70 df 3c
       -0.07748712 0.2735957 0.8407231 0.02727545
000110 94 82 df 3e 67 b8 5f 3e 0b af 42 3d 9a 9c 0c 3f
       0.4365431 0.21847688 0.047530215 0.54926455
000120 c2 84 9d 3e 3e 97 14 3e 3e 0d 0c bf c2 70 8e 3e
       0.3076535 0.1451082 -0.54707706 0.27820402
000130 c5 98 88 3e ae ee 85 3e d9 0a 37 3e e9 b1 14 bd
       0.26679054 0.2615866 0.17875232 -0.03630248
000140 50 5d c7 3e db c8 08 bf a9 35 11 3f 6b c0 e4 3d
       0.3893838 -0.5343148 0.56722504 0.11169513
000150 54 e0 97 3c 41 a6 4c 3e e9 c3 e8 3e 94 47 ef be
       0.018539585 0.19985296 0.45461968 -0.46734297
000160 69 da 0e be 9b 84 eb 3e ad 5f 25 3f ba 68 2b be
       -0.13950504 0.45999607 0.64599115 -0.16739169
000170 48 ee a2 3c 88 44 29 be 53 6e 37 3f 65 84 67 3e
       0.019889012 -0.16530049 0.71652716 0.22609098
000180 db fa fe 3e 8f 9e b5 3e 5c 4b d1 3d 3a c1 7b bc
       0.49800763 0.35472533 0.10219452 -0.015365893
000190 9f 03 ff 3e cc 92 a7 bd 6a 83 1f bc df dd 10 be
       0.4980745 -0.08182296 -0.009735921 -0.14147137
0001a0 a4 7b 0c bf 31 f6 e7 3e a4 f2 47 3e 27 d3 c1 be
       -0.5487616 0.45305017 0.19526154 -0.3785641
0001b0 61 c2 84 3b 42 14 cb 3c 8e 2a 34 3e 0e 5a a9 3d
       0.004051492 0.024789933 0.17594358 0.0826913
0001c0 ca 51 19 bf 10 6b 2b 3e 7f 37 b7 be 8b 03 51 be
       -0.59890425 0.1674006 -0.35784528 -0.20411508
0001d0 51 9e 12 3f b3 92 9d bd ee d5 69 3e 3a 63 a2 be
       0.5727282 -0.07693996 0.22835514 -0.3171633
0001e0 7e e4 12 3f 05 9a 73 3e 63 64 0b bf 7f d1 82 be
       0.573799 0.23789223 -0.5445005 -0.25550458
0001f0 2f e0 17 be df 6f 4a 3d c9 b0 40 be 94 20 2e bf
       -0.14831613 0.049423095 -0.18817438 -0.6801846

fc1.bias f4 [64]
000000 52 d7 a5 3e 10 56 2f 3f e6 9c 5e be db 40 d6 be
       0.3239084 0.68490696 -0.2173954 -0.41846356
000010 28 60 0b bf e8 07 19 3e 6a e4 c2 be d8 7f 19 be
       -0.544436 0.14944422 -0.3806489 -0.14990175
000020 52 ec f2 bc 9e db 23 3f 86 87 d3 bb e1 b5 3d 3f
       -0.029653702 0.64006984 -0.0064553646 0.7410565
000030 aa 47 52 be 6f d5 22 3f cd 89 49 be b9 09 e3 bd
       -0.2053515 0.63606924 -0.19681473 -0.11085839
000040 b6 08 9d be 5c 6d 23 3e 0c ee 04 3f 62 b8 36 bf
       -0.30670708 0.15959686 0.5192573 -0.71375096
000050 fa 96 be 3e ae a1 25 bf 8e a5 f8 3e 44 22 2d bf
       0.3722456 -0.6469983 0.48563808 -0.6763041
000060 9a fa 92 3e f8 50 44 3e c2 dd 39 be 2d 48 3a bf
       0.2870682 0.19171512 -0.18151 -0.7276638
000070 e2 41 34 bf 91 77 db be dd 17 ce be 1c 13 eb be
       -0.7041303 -0.4286466 -0.4025258 -0.45913017
000080 8a b1 01 bf 19 a2 ba be 26 2e 6a 3e 88 c7 3c bf
       -0.5066153 -0.36451796 0.22869167 -0.7374196
000090 f0 d6 2c bf 29 c2 ed be 0b 1f a8 be 8a 14 30 3d
       -0.6751547 -0.46437195 -0.32836184 0.042988338
0000a0 e4 a2 6f be 77 97 22 bf fe 99 0c bf be c5 ea be
       -0.23401982 -0.63512367 -0.54922473 -0.4585399
0000b0 5f 4a 1e bf 86 02 67 be 01 05 dd 3d 70 4e 67 be
       -0.6183223 -0.22559556 0.1079197 -0.22588515
0000c0 84 7d 95 bd 26 08 1a be 98 66 ae 3e 1a 47 b2 bd
       -0.07299331 -0.15042171 0.34062648 -0.08704968
0000d0 e0 8f 06 bf 12 cf 7d be 56 88 14 bf 71 82 05 bf
       -0.52563286 -0.24786022 -0.5802053 -0.5215216
0000e0 35 49 5b bd 54 05 14 bf 74 9b cf 3e 62 6a 27 3f
       -0.053536613 -0.5782063 0.4054829 0.653967
0000f0 6b ee 52 bf dc 09 ab 3e 7c bb 5f bd 4e d7 4c be
       -0.82395047 0.3340596 -0.05462216 -0.20004007

fc2.weight f4 [64, 64]
000000 d8 76 ec 3c 95 25 ae bd 6c 48 80 bd a4 72 36 be
       0.028865263 -0.08503262 -0.062638134 -0.1781717
000010 c6 44 f9 3d 89 a0 73 bc b6 5b a3 3d ea 21 a6 bd
       0.121713206 -0.0148698175 0.07976477 -0.08111937
000020 9e 12 61 be 45 2c 5c 3d 44 51 43 3e 91 4b 79 be
       -0.21979758 0.053753156 0.19073969 -0.24345233
000030 e5 c4 23 be 05 f7 7e be 38 4c 14 3e 34 ba 5c bd
       -0.15993078 -0.24898918 0.144822 -0.053888515
000040 68 6e 69 bd 8f 69 da bc f5 2a 29 3d 1e 37 ab bd
       -0.056990057 -0.026661662 0.041300733 -0.08360122
000050 c3 77 b9 bd ca 9e eb bd f3 8f 5b bd 28 a7 e1 bc
       -0.09056046 -0.11504896 -0.053604078 -0.027545527
000060 ff 5f cd bd d7 03 ee 3b 26 fd 8c bd a5 b1 a9 bc
       -0.100280754 0.0072636413 -0.06884222 -0.02071459
000070 a7 e1 8d 3c 80 df 0a bb 32 8a ae bb d0 6e a2 bd
       0.017319513 -0.0021190345 -0.0053265328 -0.07931292
000080 bc b2 9c 3b 5e 2e d7 bd 04 d5 db bc 62 3d 84 bd
       0.004782049 -0.10506891 -0.026834972 -0.0645702
000090 f2 3d 28 bd 46 c3 2a 3d 69 ed 7d be 0f 3f 36 be
       -0.0410747 0.041690134 -0.24797596 -0.17797492
0000a0 18 49 2c 3d 7b fd 18 be 30 89 15 be 00 df 8a 3b
       0.042061895 -0.14940445 -0.14603114 0.0042380095
0000b0 88 3e 20 3d 8f a1 8f bd a0 b9 3f 3d 04 55 a9 3c
       0.039122134 -0.07013237 0.046807885 0.020670421
0000c0 72 08 92 bd e2 b3 59 be 85 19 94 3e 48 b4 c0 3d
       -0.07130517 -0.21260026 0.2892572 0.09409386
0000d0 27 8d a6 bd 3c e9 e0 bd e0 e5 d8 3c d0 56 cc bd
       -0.081323914 -0.10981986 0.0264768 -0.09977496
0000e0 b7 93 95 3d 8a 7b ff bd 47 e6 af bc d0 1a 3b 3d
       0.07303565 -0.12474735 -0.02147211 0.045679867
0000f0 d0 c3 17 be c8 2a 21 3e 42 bc 94 3d 80 80 b1 bb
       -0.1482079 0.15738976 0.0726247 -0.0054169297
000100 c8 ea 1a bd d4 87 a5 bd 82 e6 97 bd aa 58 c0 3d
       -0.03782156 -0.08082548 -0.07417013 0.09391911
000110 f2 9f dd 3d a0 8a 9f bb 80 31 4f 3c d8 86 12 3d
       0.10821523 -0.0048688203 0.012646079 0.03577313
000120 76 db 9e bd d0 81 27 3c b0 de fc bc 60 fc ac 3c
       -0.077567026 0.010223821 -0.030867904 0.021116436
000130 5e f9 f1 bd 40 49 11 3b 40 ff 44 3c c0 ae f9 3d
       -0.11815141 0.0022168905 0.012023747 0.12191534
000140 62 5b e5 3d a4 a4 2a bd 40 21 65 bc e8 9c ed 3d
       0.111990705 -0.04166092 -0.013984978 0.11602193
000150 66 c1 b9 bd 18 97 3a bd 78 55 c8 3c 20 76 43 bc
       -0.09070091 -0.04555425 0.024454817 -0.011930019
000160 da b2 af bd e4 f0 cf bd 74 bc 5a bd 18 53 35 3d
       -0.08579035 -0.10153368 -0.05340238 0.044268698
000170 d4 1d 6a 3d 60 e5 c7 bb 4c ed eb 3d ec 72 53 bd
       0.057157353 -0.0061003417 0.1151987 -0.05162327
000180 c0 e9 49 3d 52 05 86 3d da f2 98 bd 36 fd a9 3d
       0.049295187 0.065439835 -0.07468195 0.08300249
000190 90 97 33 3d 3a c8 93 bd 42 f7 ab bd 90 c6 85 3d
       0.043845713 -0.072159246 -0.0839677 0.065320134
0001a0 d8 d6 d3 3c 44 f5 89 bd ba a7 8f 3d a8 85 12 bd
       0.025859281 -0.06736234 0.07014413 -0.035771996
0001b0 74 76 c9 bd 66 c7 b1 3d d0 4e a3 bd 68 c5 f1 bc
       -0.09837046 0.0868061 -0.07974017 -0.029513076
0001c0 e6 f1 a1 3d d0 55 64 3d b0 93 9f bc 36 17 e9 3d
       0.079074666 0.0557459 -0.019479603 0.1138138
0001d0 ea e4 df bd 30 07 96 bc 1a 94 f0 bd 5c 26 f0 3d
       -0.10932334 -0.018313974 -0.11746998 0.117260665
0001e0 b6 34 b2 bd 60 d6 cf 3b dc 0e fe 3d 94 a0 c0 3d
       -0.0870146 0.006342694 0.12405178 0.09405628
0001f0 08 65 6e bd 54 1d 39 3d 00 74 ba bc 74 b4 15 3d
       -0.05820182 0.045193985 -0.022760391 0.036549047
000200 18 83 5f 3d 74 87 63 3c 1a a0 c6 bd 8e af d7 3c
       0.05456838 0.013887275 -0.09698506 0.026328828
000210 48 04 95 3d 2b 81 07 be 8a 4a b1 bd 86 77 ca bd
       0.07276207 -0.13232867 -0.08656795 -0.098860785
000220 f7 d5 03 3e 7a 38 52 be b6 a1 83 3e 83 65 9f 3d
       0.1287459 -0.20529357 0.25709313 0.07783034
000230 5a 1d c7 bd d8 60 de 3d d9 27 f0 bd 24 01 18 3d
       -0.09722395 0.10858315 -0.1172635 0.037110463
000240 1c 30 d3 bd dd 84 fe bd 29 92 ed bc 8f d5 96 3d
       -0.103119105 -0.124276854 -0.029000359 0.07364952
000250 1f 63 ac bb d0 74 60 bd 09 59 3b be 60 95 85 bd
       -0.0052608396 -0.0547989 -0.18295683 -0.06522632
000260 55 2e bb bc 70 34 fe bb b8 46 24 be 8e fb 0a 3e
       -0.022849241 -0.007757716 -0.16042602 0.13572523
000270 e1 6f 85 bc 9e e7 8a 3d f6 63 ed bc 69 78 f5 3d
       -0.0162887 0.06782459 -0.02897833 0.11985857
000280 bb 51 f0 bb b4 bf 04 3e 6d c0 92 bd a6 6e c6 3d
       -0.007333962 0.12963754 -0.071656086 0.09689073
000290 c3 19 18 be 9c 1a bc bd 51 9c 83 3d 6e 88 5c bd
       -0.14853577 -0.09184763 0.06426299 -0.053841047
0002a0 a0 72 06 bc 84 e6 2f 3e 01 de 14 3e 48 ae ec 3c
       -0.00820604 0.17177778 0.14537813 0.028891698
0002b0 60 e0 01 be 03 79 bd 3d 6b c8 14 3b ef 39 1e 3e
       -0.12683249 0.09251597 0.0022702466 0.15451787
0002c0 62 b2 b2 bd d3 40 16 be 49 32 94 be 90 4a 97 3d
       -0.0872543 -0.14673166 -0.28944615 0.073872685
0002d0 02 f0 b9 3d 22 a6 fe bd 32 26 a3 bd 8a 5b 95 bd
       0.09078981 -0.12434031 -0.079662696 -0.0729285
0002e0 e8 ce 86 bc 64 af b3 bd 62 3a 8f 3d 87 04 43 be
       -0.016456082 -0.087736875 0.069935575 -0.19044696
0002f0 bb 59 09 3e 36 52 bb 3d 65 16 6b 3d 36 d1 f9 bd
       0.13413136 0.0914654 0.057394404 -0.12198107
000300 c1 4f 65 bd 2b 8e e6 be 74 97 1f bd 59 d8 38 bf
       -0.055984262 -0.4503034 -0.038962796 -0.7220512
000310 3a 3d 9b bd 9e 4b 90 3d c8 fd c5 bc f8 d7 d4 bc
       -0.075800374 0.07045673 -0.024168864 -0.025981888
000320 55 0c fa bc 97 d8 2f 3e 90 e4 b7 be cb 83 1e bf
       -0.030523458 0.17172466 -0.35916567 -0.6191985
000330 88 df 19 3e be f5 d5 be 11 5b 8f be 30 8a 50 3d
       0.15026677 -0.4178905 -0.27999166 0.050913036
000340 70 94 ad bd e8 e1 db 3c c6 c5 47 3d 7a 9d 3c be
       -0.08475578 0.026841119 0.048772596 -0.18419448
000350 53 80 f0 3b 2a f4 82 3d 2c e6 fa bd c4 4b 0e 3d
       0.007339516 0.06394227 -0.12250933 0.034740224
000360 42 44 af be 7c 12 39 3e 0e 67 63 3d 42 cd ae bd
       -0.34231764 0.18073457 0.055518202 -0.085352436
000370 27 9e 66 bf 28 b9 c8 3c 58 7b fb 3b d0 c9 f0 be
       -0.9008507 0.024502352 0.007674616 -0.4702897
000380 4a 4b 18 bf f2 e5 1f be ee 61 98 3e de 63 54 be
       -0.5948988 -0.15615061 0.29762214 -0.20741221
000390 3a ee fc be 4b 09 1b be 1a 37 f0 bd 9f 6f 1d 3d
       -0.49400502 -0.15140264 -0.1172926 0.03843653
0003a0 20 cd e1 3b 48 a8 21 be 5d 72 35 bf 72 16 96 bd
       0.006890908 -0.1578685 -0.7087763 -0.073285
0003b0 7e 3e 19 be 1a 0a 8f be af 93 ec 3b 20 96 82 be
       -0.14965245 -0.27937394 0.0072197537 -0.2550516
0003c0 2f 8a 0c 3e 27 70 6a be e6 0c 35 be 58 32 b5 bd
       0.13724588 -0.22894345 -0.17680702 -0.08847493
0003d0 65 18 ac 3c ea 0f b2 bd 18 1f 9c 3c 54 dc 44 3d
       0.021007726 -0.086944416 0.019057795 0.048061684
0003e0 79 d4 c1 bd c8 91 f2 bd 27 6e 48 be 37 34 61 3d
       -0.09464354 -0.11844212 -0.1957327 0.054981437
0003f0 36 f7 57 be 59 e7 e6 3d 32 d8 cf bc d0 33 d0 3d
       -0.21090397 0.11274595 -0.025371645 0.101661325

fc2.bias f4 [64]
000000 47 44 99 bd e8 c3 e9 3c 0f d4 b5 bd 6b c8 d5 3d
       -0.07483726 0.028535798 -0.088783376 0.10438617
000010 b9 a6 37 3e 0f 04 bb 3d 02 38 ad bc 3f 64 b6 bd
       0.17934693 0.091316335 -0.02114487 -0.08905839
000020 e9 91 2e bd ae bf fb bd 2b e1 f6 bd 36 02 18 3e
       -0.04261962 -0.122924194 -0.12054666 0.14844593
000030 12 ce 98 bd bf 64 88 be cd 65 b4 bb 40 3c 19 3d
       -0.0746118 -0.26639363 -0.0055052997 0.037410975
000040 42 67 40 3e 62 f7 5d 3d 03 c1 1b 3d 5c 38 21 3d
       0.1878939 0.054191 0.038025867 0.03936039
000050 14 ee 4e be b2 2f 81 bc ba 90 2c 3e bc 1f 06 3d
       -0.20208007 -0.015769813 0.16852084 0.032745108
000060 c1 e3 44 3e ba 89 3e be 52 a7 c0 3d f4 7a 0e 3d
       0.19227506 -0.18607226 0.09406914 0.034785226
000070 80 5c 13 3c 04 77 1b 3d f8 d4 15 3d 22 79 c1 3d
       0.008994222 0.0379553 0.036580056 0.094469324
000080 9f 5f 06 3d 7f 3f 11 3d 3c 0d d9 3d 5c 03 b7 bd
       0.032806035 0.035460945 0.105982274 -0.089361876
000090 72 28 9d 3d ef bf e0 3c 17 4e b9 3a a4 aa 01 be
       0.0767373 0.027435271 0.0014137652 -0.1266275
0000a0 bf ff e0 3d 7c 8e cd 3d 87 f0 44 bd 0e e9 88 3d
       0.1098628 0.10036942 -0.048080947 0.06685077
0000b0 0c 01 a7 3d 65 cb 4c be 85 f4 b4 bd 8c 98 ce bd
       0.081544966 -0.19999464 -0.08835701 -0.1008769
0000c0 10 f3 a9 3d b6 4c d8 bd 11 3e 44 3d b1 8e 8d bc
       0.082983136 -0.105615065 0.047910754 -0.017279955
0000d0 21 d6 16 be 84 11 93 bd 3b 42 23 3e 28 be c7 bc
       -0.14730121 -0.07181075 0.15943234 -0.024382666
0000e0 81 e3 26 be 67 c0 13 3d b6 ac 22 bd 67 c1 47 3c
       -0.16297723 0.03607216 -0.03971549 0.012192107
0000f0 61 77 4a be 7b 27 75 be b1 14 1c bc 65 44 97 3d
       -0.19772102 -0.23940842 -0.009526418 0.07386092

fc3.weight f4 [96, 64]
000000 0e 66 89 bc 36 e5 96 bd a8 2a dd 3d f0 53 5c bd
       -0.016772296 -0.07367937 0.10799152 -0.053790987
000010 16 38 56 be 69 1d 2d be d2 a0 cb 3c 10 73 a6 3d
       -0.20919833 -0.1690575 0.024856959 0.08127415
000020 41 6a 2d bd d9 47 46 3e 2a 00 80 3d 65 4e 5a 3c
       -0.04233766 0.19363345 0.06250031 0.013324355
000030 6d 2f df bd 3a 8d a2 bd 1a 59 90 3d b1 0c 45 be
       -0.108977176 -0.07937093 0.07048245 -0.19243123
000040 a5 66 f3 3d e4 e1 d0 bd 88 52 af bd cc 83 46 bd
       0.11884812 -0.10199335 -0.085606635 -0.048465535
000050 46 74 22 3c 4d 35 65 bd 3b 0c 1e be f9 1a 86 bd
       0.009915417 -0.055959035 -0.15434353 -0.065481134
000060 bf a5 55 3d 00 12 b8 3d f4 9c 04 bd c2 05 a5 3d
       0.05216002 0.08987808 -0.032376245 0.08057739
000070 94 da 8a 3d fc 8f 66 3d 66 7a b2 bd 07 c2 c0 3d
       0.06779972 0.056289658 -0.08714752 0.09412008
000080 cd 40 1a bd 5c cc 1d 3d a9 f5 2b bc db d9 e1 bd
       -0.037659455 0.03852497 -0.010495582 -0.11027881
000090 49 cc 2e 3d 0c 22 e4 bd e1 ec 49 bd 4a 29 35 bc
       0.04267529 -0.111393064 -0.04929817 -0.011057207
0000a0 87 ec 6f 3d ea 17 ab 3c 32 14 18 bd af 4d 0f be
       0.05857518 0.020885427 -0.037128635 -0.13994478
0000b0 92 f2 22 be 3f 71 62 be e8 be b6 3d 90 c1 42 bd
       -0.15912846 -0.22113512 0.08923131 -0.047547877
0000c0 50 76 15 3d 98 1b 8b 3c cb ae 02 3e 47 36 02 3e
       0.036489785 0.016980931 0.1276199 0.12716018
0000d0 b1 af 12 bc f4 38 32 bc da 15 58 be 3c fe a0 3d
       -0.008953021 -0.0108778365 -0.21102086 0.07860991
0000e0 03 6b 02 be 0f 5f 1d bd 43 76 63 be 65 90 a0 3d
       -0.12736134 -0.038420733 -0.22213082 0.07840041
0000f0 6a b2 a6 bd db 01 0b be c3 a7 97 bd b4 ae 5f bd
       -0.081394985 -0.13574927 -0.07405045 -0.05460997
000100 84 af a4 bd 34 33 91 bd 7c 38 98 bd 87 e3 a5 3d
       -0.080412894 -0.07089844 -0.074326485 0.08100038
000110 bf 53 8c bc ac 24 12 3d 9c 62 4e bd 7c 6f c1 bc
       -0.017129777 0.035679504 -0.05038701 -0.02361273
000120 63 5a 46 bd 76 c1 90 bc 00 ab 9d 3b 6a 72 25 3d
       -0.048426043 -0.017670374 0.0048116446 0.040392317
000130 85 a9 d7 bd 6f 3b 80 be 60 8b 7a bd e4 b8 35 bd
       -0.1053038 -0.25045344 -0.061168075 -0.04436578
000140 0d ad 4c be 55 74 e5 3d 1a 23 bb 3d 2a d1 82 bd
       -0.19987889 0.11203829 0.091375545 -0.06387551
000150 6b aa ed bd 19 8a ab bd 30 6b 56 be 87 e5 da bd
       -0.1160477 -0.083759494 -0.20939326 -0.1068831
000160 d0 11 43 3c 1e e7 88 3d 53 a6 a5 3d 50 4b 89 3c
       0.011906102 0.06684707 0.080883645 0.016759545
000170 c6 02 c5 bd 28 c4 e6 bc 80 66 b6 3b aa 7d 8b 3c
       -0.096196696 -0.028169706 0.005566418 0.017027695
000180 88 b8 a8 bd b9 30 f3 3d 49 8f 80 3d f8 a7 0a be
       -0.082383215 0.118745275 0.062773295 -0.13540637
000190 e0 a1 1d 3d 32 ac f2 be 7d d2 ac bd 4b 36 57 bd
       0.038484454 -0.47397 -0.08438585 -0.052542012
0001a0 39 94 d9 bd 8a 25 f7 bb 86 21 1a be 25 dd fe bd
       -0.10623974 -0.007542317 -0.1505185 -0.12444524
0001b0 d6 b5 b9 3d 8c da e6 bc a8 84 87 3d 58 a1 d0 3d
       0.090678856 -0.028180383 0.06617099 0.10187024
0001c0 73 dd 04 3d 80 79 6c bb 74 0d 9a 3d ba 5b a5 3c
       0.032437753 -0.0036083162 0.07522097 0.02018534
0001d0 1a 16 ab 3c 89 fa 7a 3d f2 b0 8b bd 38 93 da 3d
       0.020884562 0.061274085 -0.06820859 0.10672611
0001e0 c6 f1 7b 3e 60 ec 7a bc a0 c0 ed 3a 92 09 fd bd
       0.24603948 -0.015315145 0.0018139072 -0.12355341
0001f0 24 a3 9a be ad 89 33 be 68 bb 12 bd c3 bb d0 3d
       -0.3020259 -0.17532988 -0.035823256 0.10192063
000200 8d 0a 91 bc e4 3f 71 bd 2e de 8b bd 21 b8 3f ba
       -0.017705226 -0.05889882 -0.06829487 -0.0007313509
000210 c0 82 4e be 52 0b 1c bb 20 1e 1e be e7 34 d0 bd
       -0.20167065 -0.0023810458 -0.1544118 -0.1016634
000220 95 d3 83 3d 6f d3 9a 3d ec 26 88 3c 01 8f cf 3d
       0.064368404 0.07559859 0.016620122 0.10134698
000230 87 93 d3 3d 1e 62 f3 bd fc 26 71 bd 0f 8e 44 be
       0.10330873 -0.11883949 -0.05887507 -0.19194816
000240 b3 e3 1d be df c5 b3 bd 05 19 5c bd 9c 90 5f bd
       -0.15418892 -0.08777975 -0.053734798 -0.05458127
000250 d1 32 71 bd 20 29 b9 3d 77 33 94 3d 4f 13 a8 bd
       -0.058886353 0.09041047 0.07236379 -0.08206808
000260 46 e4 78 bd 00 65 dc 3b a5 a1 3c 3d 38 9d 24 bd
       -0.060764574 0.0067259073 0.046052594 -0.040188998
000270 e3 03 00 be 88 b4 ea 3d 70 37 24 bd 42 27 83 3d
       -0.12501483 0.11460215 -0.04009193 0.06403972
000280 c5 5e c7 bc d8 d0 61 bc f9 d7 7a 3d 85 ea 73 bc
       -0.024337182 -0.013782702 0.061241124 -0.014887457
000290 73 f2 89 3d 06 69 2d bf 4f ce d9 bc bb c3 63 3c
       0.06735697 -0.6773838 -0.026587633 0.013901646
0002a0 56 80 14 38 31 46 1b 3d dc a6 a8 3d d6 80 6c bd
       3.5405472e-05 0.037908737 0.08234951 -0.057740055
0002b0 f6 e8 83 3e a1 d1 08 bc 80 b2 a9 3b 18 a2 6f bd
       0.25763673 -0.008350761 0.0051787496 -0.058504194
0002c0 84 a7 f0 3c 14 50 e9 3d 58 cf da bd 7b cc 54 be
       0.029376753 0.11392227 -0.10684079 -0.20781128
0002d0 96 78 0a be 4e a0 df bc 1a 1b a5 be 90 56 49 bc
       -0.13522562 -0.027298119 -0.3224724 -0.0122887045
0002e0 7b 3c 68 3d d4 b8 82 39 b1 5a 6a be 2e dd f6 bd
       0.056698304 0.0002493324 -0.22886159 -0.120539054
0002f0 2d 35 ce bd 5d 38 58 be 2f 2c 13 be 0d 01 96 bb
       -0.10068736 -0.21115251 -0.14372323 -0.004577762
000300 52 59 e2 bc a0 01 b6 bc 94 aa 27 bd 4c c6 de 3d
       -0.027630482 -0.022217572 -0.04093416 0.10877666
000310 93 15 c3 3d 13 ea c6 3d ca dd ac 3d 00 14 68 bb
       0.09525599 0.09712615 0.084407404 -0.0035412312
000320 60 df 31 bc ec a5 65 bd 76 1d b6 bd 02 f5 c0 bd
       -0.010856479 -0.05606644 -0.08892338 -0.094217315
000330 0c 06 a8 bd 75 d9 04 3d 46 93 95 3d 8a f3 07 be
       -0.08204278 0.032433946 0.07303481 -0.13276497
000340 ba bc 82 bd 1a 06 ab 3d cc 2b 56 3d bc 9d 6c 3d
       -0.06383653 0.08350773 0.05228786 0.057767615
000350 80 56 90 bb a8 50 a4 3d 1a 12 f1 3c d4 57 17 bd
       -0.004404843 0.080231965 0.029427577 -0.036948994
000360 d4 6c 87 3d 40 96 87 3b be 99 13 3d 58 60 71 bd
       0.06612554 0.0041377842 0.03603529 -0.05892977
000370 ac b1 ce bd c4 29 af bd 00 a7 e4 bc cc 1c ce bc
       -0.10092482 -0.08552888 -0.027911663 -0.025160216
000380 4e a0 ab 3d c1 7d ba bd 0e c7 3a 3d 82 7d ce bd
       0.08380185 -0.09106017 0.04559999 -0.100825325
000390 80 01 ae bc c1 3e 19 bc f5 26 e2 3c 36 c9 c9 3d
       -0.02124095 -0.009353341 0.027606467 0.09852831
0003a0 98 4e cc 3c 73 eb 63 bd f5 ca f7 bd 26 ad 3f bd
       0.02493982 -0.055644464 -0.12099258 -0.046795987
0003b0 67 3b 2c 3d 26 89 b6 3d 52 b7 d4 3d 62 82 b9 bd
       0.042048838 0.08912878 0.10386528 -0.09058072
0003c0 57 58 b6 bd e8 79 7c 3d 30 21 54 bc e2 cb e9 bd
       -0.08903568 0.061639696 -0.012947366 -0.11415841
0003d0 c4 ec cc bd 66 58 b7 3d fc 12 c0 bd 44 fb dc 3d
       -0.10006097 0.089524075 -0.09378621 0.107901126
0003e0 b0 d5 ae 3d 32 f8 cd 3d 7b bd ec 3d 54 5f 08 bd
       0.085368514 0.10057105 0.11559578 -0.033294037
0003f0 30 51 ef bd 70 b9 a5 3d 8b 46 ec bd ba f2 c5 bd
       -0.11685407 0.0809201 -0.115368925 -0.09665437

fc3.bias f4 [96]
000000 af bb b5 3c 86 7e 93 3d d7 30 25 3d 1a 5d 0f be
       0.022184221 0.07201867 0.04032978 -0.14000359
000010 79 c6 8f 3c 1e bd 82 3b be e5 a2 bd 8d 72 68 3e
       0.017550694 0.0039898297 -0.07953976 0.22699948
000020 98 a6 a2 bc b5 a2 c1 bd e4 99 99 bd e4 bb 44 3d
       -0.019854829 -0.09454862 -0.075000554 0.04803075
000030 1b a5 17 be 15 37 ae bc 8a 95 46 bd 9e 60 89 bd
       -0.14809076 -0.0212665 -0.048482455 -0.067078814
000040 b1 a2 97 3d 0a fa 2e be 3e 55 00 be d2 51 2a 3e
       0.07404078 -0.1708757 -0.12532517 0.16632774
000050 e2 ef f0 3d 3a ec 8a bd ff da d9 bd 5e e1 d2 3d
       0.11764504 -0.06783338 -0.10637473 0.10296892
000060 a1 5f 07 be 39 eb 83 3d c6 b5 5b 3e 7b 1e 8e bd
       -0.13220073 0.064413495 0.2145606 -0.069394074
000070 54 a8 ed bc 90 51 0d be fa c8 10 be 80 32 03 be
       -0.02901093 -0.13800645 -0.14139166 -0.12812233
000080 15 be 8b bd 64 41 11 be 1c 3f dd bd 83 ef 3c be
       -0.06823365 -0.14185101 -0.10803053 -0.18450741
000090 d2 92 b9 3d bc 9a 15 be 90 b9 3c bd cc 5f e7 bd
       0.09061207 -0.14609808 -0.046075404 -0.11297569
0000a0 1b a8 0e be 71 d4 23 be a0 74 80 3e 8d b7 6f bb
       -0.13931315 -0.15999009 0.25088978 -0.003657791
0000b0 ad 5a b9 bd ba 55 1b 3c 93 c5 90 bd 9e 99 9d bc
       -0.09050498 0.009480888 -0.07068934 -0.01923829
0000c0 96 16 de bd 40 2a f4 bd 26 ba 15 be 96 79 41 3c
       -0.10844152 -0.11922121 -0.14621791 0.0118087735
0000d0 69 db a4 bd 6a 13 a1 bd c4 3e 08 be 0b e0 ea bd
       -0.08049662 -0.07865031 -0.13305193 -0.11468514
0000e0 55 05 85 3c c9 6d ba bd 92 cc 02 be d0 51 b5 bd
       0.016237894 -0.09102971 -0.1277335 -0.08853495
0000f0 b2 39 f7 3c 3e 2d 0b 3e 73 07 5b 3d c7 0c 82 bd
       0.030178878 0.13591477 0.0534739 -0.06350093
000100 24 e6 c0 bd 74 d1 8c bd 5e 86 77 bd 7f af af 3d
       -0.09418896 -0.068758875 -0.060430877 0.08578395
000110 d3 c8 4c 3e 62 24 38 3c 16 6c ea 3c 54 02 06 be
       0.19998483 0.011239143 0.028615993 -0.13086826
000120 eb 9f 21 be 23 0d e4 bd 53 45 86 3d e3 9e 04 be
       -0.1578366 -0.11135318 0.06556191 -0.12951235
000130 65 59 0f 3d 1c b8 f0 3d a7 b9 37 3e 0d a3 df 3c
       0.034997363 0.11753866 0.17941914 0.027299428
000140 fd 86 c5 bc 23 d0 e1 bd 43 3e aa 3d 32 7c d2 bd
       -0.024112219 -0.11026027 0.08312657 -0.102775946
000150 9a 51 1b 3e 31 21 22 3e 8e a2 d5 3d 3a ba 26 3e
       0.15167847 0.15832974 0.104313955 0.16281977
000160 47 71 18 3d b5 51 b6 bd c8 b7 47 bd a4 27 36 3e
       0.037217405 -0.08902303 -0.04875925 0.17788559
000170 b6 13 0b 3e 17 68 54 3e 32 5a 00 3e 98 00 70 bc
       0.13581738 0.20742832 0.12534407 -0.014648579

fc4.weight f4 [96, 96]
000000 0e 92 c4 bd c1 45 03 be 68 e5 36 3d 22 e5 c3 3d
       -0.0959817 -0.12819578 0.044652373 0.09565188
000010 cf ad a7 bd 9b 68 ce bd ea 29 15 b8 0e 5b aa bd
       -0.08187448 -0.10078546 -3.5563404e-05 -0.083181486
000020 cd be 7c 3d 56 9b d3 3c 92 8e 3a 3c 70 5d c0 bd
       0.0617054 0.025830906 0.0113865305 -0.09392822
000030 80 e2 92 3d 68 a2 83 3d 4e b5 88 3d 15 de 59 39
       0.07172108 0.06427461 0.06675206 0.00020777465
000040 92 a9 e4 bd 2d ad e7 3b 19 5b 3e bc 7b 8d 13 3d
       -0.111651555 0.0070702047 -0.011618399 0.0360236
000050 9b c8 ec bd 83 0d 04 3c ee d2 9d bd 0b dc 39 3d
       -0.115617 0.008059862 -0.07706247 0.045375865
000060 9e 3c 42 bd 43 c1 80 bd 81 f8 9a 3d 3d bb d9 3c
       -0.04742109 -0.06286862 0.075669296 0.02657854
000070 1a c9 2e 3c 6d e5 41 bd b9 4f b9 bd 19 12 91 3d
       0.010668064 -0.047337938 -0.09048409 0.0708353
000080 f1 55 85 bd e5 cb 4d bd bc eb 83 bd f2 6f 72 3d
       -0.06510533 -0.050243277 -0.06441447 0.05918879
000090 ea 17 80 3d fc b4 22 3d f7 79 40 3d 66 99 cd 3d
       0.06254561 0.03972338 0.046991315 0.10039024
0000a0 b1 78 9a bd 75 8f 7c bd f4 84 b6 bc ee 8d b1 3d
       -0.07542551 -0.06166025 -0.022280194 0.08669649
0000b0 a3 5a 62 3d cd 70 04 bc dc 52 49 3d a2 10 83 3d
       0.05526222 -0.008083534 0.049151286 0.06399657
0000c0 c8 10 19 bd 6f 9a 7a bc 4d 9d a2 3d 9c 8d ae bd
       -0.03736952 -0.015295609 0.07940159 -0.085231036
0000d0 68 45 96 bd 83 cc c4 3d fe 13 50 3d 5d 8f 1e bd
       -0.07337457 0.0960932 0.050800316 -0.03871094
0000e0 1a 36 de bd 5d f3 3f 3d 2f 86 b8 3d ab a5 a4 bd
       -0.10850163 0.04686295 0.090099685 -0.08039411
0000f0 bf 2c d9 3d 82 03 0f 3d d3 09 49 bd 2d 82 db bd
       0.10604238 0.034915455 -0.049081635 -0.107181884
000100 6d d3 a5 3d e6 34 9a bc 69 0a 2d 3d 9e 0a 8f 3d
       0.08096967 -0.018824052 0.042246256 0.06984447
000110 79 56 a2 bd 47 f6 b3 3d 44 fa 73 3d f6 18 a4 3d
       -0.079266496 0.08787208 0.059564844 0.080125734
000120 6a cb 93 3d 3d b6 ce bd 3b f7 82 bc 0c be c2 3d
       0.072165325 -0.10093353 -0.01598703 0.09508905
000130 0e 16 01 3d 8b 77 e3 bd ec 23 a5 bc b7 0a ae 3c
       0.031515174 -0.111067854 -0.02015873 0.021245344
000140 df 6f 01 3d ca 62 b7 3d 1e f5 97 bd 84 1b 8e bd
       0.03160083 0.089543894 -0.07419799 -0.06938842
000150 dc 6d 6d 3d f6 f7 53 bd 4d ed d4 bc 70 c1 54 bd
       0.0579661 -0.051750146 -0.02599206 -0.05194229
000160 26 58 30 bd 2e 64 08 3d 61 be 8c bd 50 e8 24 bc
       -0.043052815 0.033298664 -0.068722494 -0.010065153
000170 e2 f3 87 3d 21 70 f8 bc 7e 9b 1a bd df b8 88 3d
       0.06638314 -0.030326905 -0.037745945 0.06675886
000180 9d 55 2a bb 36 5e 34 bd f4 86 2d 3d f7 4e 46 3d
       -0.002599097 -0.04403516 0.04236503 0.04841515
000190 e7 b0 47 3c de 9d b6 bd 19 0c fe bb f4 89 a1 bd
       0.012188173 -0.089168295 -0.007752907 -0.078876406
0001a0 50 ac 02 bd 7c e4 8d bd 6d f1 4a bd 3b d4 23 3d
       -0.03190261 -0.069283456 -0.049546648 0.03999732
0001b0 c9 cb e6 3c 5f d4 ae bd c4 04 0f bd 17 45 22 3d
       0.028173344 -0.085366 -0.034916654 0.03961667
0001c0 86 b7 71 3c 09 3b b9 3d 6e 85 1d 3d 36 00 14 bd
       0.014753228 0.09044463 0.038457327 -0.036133014
0001d0 57 aa e5 3c 29 d6 9d bd 9f 3e 15 bd f5 ed 92 bd
       0.028035326 -0.077068634 -0.036436673 -0.07174293
0001e0 7a c7 8f bd 68 82 25 bd 8a 9d a2 3c f0 7c 89 bd
       -0.07020469 -0.04040757 0.019850511 -0.06713283
0001f0 96 a5 83 3d ee 70 ca 3d 4f 6e b3 bd d5 0b 14 bd
       0.064280674 0.09884821 -0.08761274 -0.036144096
000200 18 b8 92 bd a0 fb c0 bd 8a 9b 5c 3d 69 ce 94 3d
       -0.07164019 -0.09422994 0.05385927 0.07265932
000210 96 99 e1 bc bf 1c ca bd fa 44 34 3d 4f 24 c0 3b
       -0.027539056 -0.09868764 0.044011094 0.0058637033
000220 ce 6c 86 bc 40 93 9b bd 8e 6b 34 bd 06 f9 70 3c
       -0.016409304 -0.07596445 -0.044047885 0.014707809
000230 08 03 42 3d bf 34 ac 3c 6b 6b 6e 3c e7 9c b1 3d
       0.047366172 0.021021245 0.014551978 0.08672505
000240 0d 17 77 bd 26 04 7f 3d 44 0d a5 bc 93 07 e6 3c
       -0.060324717 0.062259816 -0.020147927 0.028079784
000250 29 f4 2c bd 76 57 af bd 5f 0e 99 3d f2 43 c7 bd
       -0.042225037 -0.08561604 0.07473444 -0.097297564
000260 fb 1c 54 3d a7 a6 85 3c 05 67 bb 3d 63 45 4a bd
       0.05178545 0.016314818 0.09150509 -0.04938258
000270 2a d3 61 3d c8 0c b5 bd 48 f3 e7 bc d0 69 9d 3d
       0.055133022 -0.088403285 -0.028314248 0.07686198
000280 3f b2 a8 bd 4b c9 81 bd 22 e2 0d bd 54 56 41 bd
       -0.08237123 -0.06337222 -0.034639485 -0.04720147
000290 69 3c cc 3d dd e1 76 bd b9 6e 9a bd fe 6a 84 bd
       0.0997246 -0.060273994 -0.0754065 -0.0646572
0002a0 e5 33 65 3b 16 4d 8a 3d 28 dc a3 3d 96 2f b7 3d
       0.0034973559 0.06752984 0.08000976 0.08944623
0002b0 27 b0 1d 3d 95 ae 87 3c 6f 2e ab bd cc 4f b3 3c
       0.03849807 0.01656274 -0.08358466 0.021888636
0002c0 4e ed 6a bb b6 23 55 3c 95 ce fc bc 61 a8 76 bc
       -0.003584701 0.013009002 -0.030860225 -0.015054793
0002d0 60 e6 4f bd 22 32 42 3d 11 d4 2f bd 10 7b 96 bd
       -0.050756812 0.04741109 -0.04292685 -0.07347691
0002e0 1e 31 6d bc cd 1b 23 bd 6e bd cf bd ae 51 4b bd
       -0.0144770425 -0.039821435 -0.10143553 -0.049638443
0002f0 c9 4b 51 bc 88 02 ab bc 15 b0 ae 3c 5c 1e 45 bd
       -0.012774416 -0.02087523 0.021324197 -0.048124656
000300 70 86 b2 bd dd 1a eb 3c bf 6a 88 3d 0e e6 45 3d
       -0.08717048 0.028699333 0.06660985 0.0483151
000310 11 25 4c 3d 54 63 7c 3d c4 51 84 bc ec 14 60 3c
       0.049840037 0.061618164 -0.01615227 0.013676863
000320 5f 84 b2 3d df 5f 60 bd b9 90 1c bd df 5d 83 3d
       0.08716654 -0.05477893 -0.038223956 0.06414389
000330 f4 7f 8b 3c a5 cb bd 3c f5 fb 1e bc 7a 88 94 bc
       0.017028786 0.023168394 -0.009703626 -0.018131483
000340 fc f4 e2 3c 9a ba 80 3d 53 ad 81 bc 57 6e 26 bc
       0.027704708 0.062855914 -0.015829718 -0.010158143
000350 69 a7 ef bc 0c 7b 1b b9 96 98 09 3d e2 4f 55 bd
       -0.029254632 -0.0001482779 0.033592783 -0.052078135
000360 6f 9e 22 bd 70 23 56 3d 1e d8 d4 bc f7 01 9d 3d
       -0.039701875 0.05227989 -0.025981959 0.076663904
000370 d6 9d af bc 9d 27 ca 3c 06 36 af 3b 94 e1 8c 3b
       -0.021437567 0.024677092 0.0053470163 0.004299352
000380 9f 38 11 3d 39 c6 c4 bc 32 bc d8 bd 32 aa 46 bd
       0.03545439 -0.024020301 -0.105827704 -0.048502155
000390 76 73 35 3d 06 0d 4e bd 34 0a da bd 81 96 b9 3d
       0.044299565 -0.05030539 -0.10646477 0.090619095
0003a0 90 02 97 bc cd d7 79 bd ee 63 85 bb 41 cc 24 3d
       -0.01843384 -0.06099682 -0.0040707504 0.040233854
0003b0 bd e4 dc bd 04 da a1 bc b8 0f 28 3d 3c 2f c2 3c
       -0.10785816 -0.019757278 0.041030616 0.023704164
0003c0 7f 79 b7 bd 10 0f 91 3d ef 80 08 bd 9f fd 0c bd
       -0.089587204 0.07082951 -0.033326086 -0.03442156
0003d0 39 71 51 bd 0e 89 c0 bd 47 67 f1 bc 14 17 09 3d
       -0.05113337 -0.09401141 -0.029468192 0.033469275
0003e0 eb ab c8 bd 27 b7 6d 3d 9b ca de bc 2a 0d 21 bd
       -0.09798416 0.058035996 -0.02719622 -0.039319195
0003f0 e8 6d 4e 3c c0 08 60 3d ea c2 ed 3c 5f d6 86 bd
       0.012599446 0.054695845 0.029023606 -0.06583857

fc4.bias f4 [96]
000000 64 fb b1 bc cb 0a 72 bd 69 66 2f bd e6 44 06 bd
       -0.021726318 -0.059092324 -0.042822275 -0.03278055
000010 d7 c1 8b 3e 86 aa 5e 3c b9 75 88 3e c0 29 94 3e
       0.27296326 0.013590461 0.26652315 0.28938103
000020 bf ac 75 3c 20 8d da bd 01 74 83 bd 16 fe 27 3d
       0.014994799 -0.10671449 -0.0641861 0.0410138
000030 97 fd a1 3d 7b 61 4b 3e f2 70 35 bd 80 eb e6 3d
       0.079096965 0.19861405 -0.044297166 0.11275387
000040 77 48 ad 3e 4c 05 90 3e ba 28 fe 3c 01 6b 05 bd
       0.3384435 0.2812904 0.03102528 -0.03257275
000050 ca db 86 bd 2e 83 fc 3d 91 8d ee 3d 59 76 4c be
       -0.0658489 0.12329708 0.116480954 -0.19967021
000060 13 5c c1 3c 14 8d af 3e fe ca 15 3e 87 b2 22 bd
       0.023603475 0.34287322 0.14628217 -0.03972104
000070 ce e6 92 3d 4d 55 11 3d 4e 44 80 3c f1 03 8e bd
       0.07172929 0.03548174 0.01565757 -0.069343455
000080 ba cd 6e 3e cb d0 f0 bd 1c cd 3d 3c 5d e1 fa bd
       0.23320666 -0.11758574 0.011584546 -0.12250016
000090 b3 8f 8f 3d 82 d1 94 3e 72 68 95 3e 39 c5 01 be
       0.0700983 0.29066092 0.29181248 -0.1267289
0000a0 64 73 f4 3c 4e fb 46 3e 7a f2 84 3e be f4 75 3e
       0.029840179 0.19431803 0.25966245 0.24019143
0000b0 51 61 b3 3e 72 6c 65 bd 8c dd a2 3e 6e 2a 07 3e
       0.35035184 -0.056011625 0.31809652 0.1319978
0000c0 34 60 99 3c ff af 91 3e fd 89 e5 3b f9 16 77 bb
       0.018722631 0.28454587 0.007004975 -0.0037702902
0000d0 6f aa e1 3d 20 34 a7 bd c5 1d 42 3d ca d1 2c 3d
       0.11018836 -0.08164239 0.04739167 0.042192258
0000e0 d3 0b a2 3c c6 9a 4f 3e 90 91 85 3d 37 00 83 bd
       0.019781029 0.20273885 0.065219045 -0.06396525
0000f0 24 14 b4 bd 7b 6e b4 3e 62 ed c9 3d 95 42 97 bd
       -0.08792904 0.3524054 0.0985973 -0.073857464
000100 d9 07 ba bd 1a 19 dd bd 94 f7 53 3e c8 d7 c2 bd
       -0.09083528 -0.10795803 0.20699912 -0.09513813
000110 f5 bd 46 bd 55 69 00 3e c1 5d ee 3d a9 95 17 3d
       -0.048521 0.12540181 0.11638976 0.03700796
000120 10 b9 53 3e 40 df 81 bd d5 04 99 3e 1a eb a8 bd
       0.20676064 -0.0634141 0.298865 -0.08247967
000130 25 77 b4 3b c6 82 b2 bd 28 c4 02 3e 33 35 ad bc
       0.005507367 -0.08716349 0.1277014 -0.021143531
000140 ea 3e 7a bd 7c c9 a3 3d f7 79 0b bd 1a f6 7b bc
       -0.061095156 0.079974145 -0.03405186 -0.015378499
000150 23 4e 03 be 6b c7 ed bc c6 48 77 3e 4e 3a 34 3e
       -0.12822776 -0.029025754 0.24148855 0.17600366
000160 73 5e 85 3e f3 b6 48 3a a6 79 02 3c b4 b9 0d bd
       0.26048622 0.0007656656 0.007963574 -0.03460093
000170 58 74 78 bd 78 ff ad bd 95 14 17 be 6d 09 b6 3e
       -0.06065783 -0.084959924 -0.14753945 0.35554066

fc5.weight f4 [64, 96]
000000 52 a7 84 3c 78 2c 5c 3d 7e c5 3e bd 46 ef bf bd
       0.016193066 0.053753346 -0.046575062 -0.0937181
000010 a7 f0 1a 3d 2e 69 60 bd 84 73 0c 3d ee 5d e2 bd
       0.03782716 -0.054787807 0.03428985 -0.11053072
000020 31 0e 11 be 01 1c 49 3c 30 81 a4 3c 34 b1 df bc
       -0.1416557 0.012274743 0.020081133 -0.027306177
000030 48 a8 bd 3d f0 76 ed 3d 94 24 ab bd 58 4f 81 3d
       0.09260613 0.11594951 -0.08356586 0.06313962
000040 ab fd 4d 3c af fd 1c bd 8d c7 c5 bd 20 b6 9f 3d
       0.012572686 -0.03832787 -0.09657202 0.077984095
000050 c5 03 9b bd ff 84 36 be 81 08 35 be e3 25 cf bd
       -0.07569078 -0.17824171 -0.17679025 -0.10114648
000060 7c 0a 6e 3d e4 f3 a7 bd 34 28 a0 bd 76 12 00 3d
       0.058115467 -0.08200815 -0.07820168 0.031267606
000070 86 18 88 bb 4b 4a 6d bd 37 57 30 be 55 3f c8 3c
       -0.004153314 -0.05793218 -0.1722077 0.024444262
000080 93 e3 a6 3d 3e bb 02 3d 9d 27 e2 bd a6 82 d2 3d
       0.08148875 0.03191685 -0.11042712 0.102788255
000090 2a bd bf bd 05 1a 05 be 05 b8 d3 bd b8 76 c1 bd
       -0.09362252 -0.12998207 -0.10337833 -0.09446472
0000a0 33 b7 a2 bd 78 6e 42 be d9 1b eb 39 54 a3 8c bd
       -0.07945099 -0.18987453 0.0004484344 -0.0686709
0000b0 b2 24 80 bc 36 13 5f 3d 2b 87 b4 3d 85 6c 0a 3e
       -0.015642498 0.05446168 0.08814844 0.1351796
0000c0 2b 1f 84 3d 01 c7 5d 3d 6c 2b 84 3d 96 fe c2 3c
       0.06451257 0.054144863 0.064535946 0.023803037
0000d0 c3 2f cf 3d 51 f0 9c bd 1b f3 93 3d 84 2f c5 3d
       0.10116532 -0.07663024 0.07224103 0.096282035
0000e0 73 98 9f 3d 91 06 2f 3c c0 2a ad 3d 2c 1b 24 3c
       0.07792749 0.010682718 0.084554195 0.010016244
0000f0 cf 11 72 bd a1 3e 96 bb f6 f5 4a bd 95 a3 81 3d
       -0.059099015 -0.0045851027 -0.049550973 0.06330029
000100 df 3f 35 3b 21 72 cf 3e a1 c7 fa bd 6c 4c ff 3c
       0.0027656478 0.4051676 -0.122451074 0.03116437
000110 1c 2d a3 bd 40 b0 9f bc 8a 34 e8 3b 05 a3 62 3d
       -0.07967588 -0.019493222 0.0070863413 0.05533125
000120 c7 ff 97 3d 1c 5e bb bd aa aa 83 bd 59 65 ad 3c
       0.074218325 -0.09148809 -0.06429036 0.02116649
000130 70 8e 80 be 60 fb b3 3d fd 8b 12 bd 8b 75 ae bd
       -0.2510867 0.0878818 -0.035778034 -0.08518513
000140 f3 45 45 b9 8f 0b 59 3e 28 0b 78 3c fa 24 87 3d
       -0.00018813442 0.21195816 0.015139379 0.065988496
000150 e6 5f 40 bd 4a 1e 5f bd b5 04 85 be 5f c4 fb bd
       -0.046966456 -0.054472245 -0.25980154 -0.12293314
000160 1f c2 89 bc b7 08 88 3d d8 0c 07 bd d4 15 52 bd
       -0.016816197 0.06642287 -0.032971233 -0.05129035
000170 9a 58 4c be 78 c3 cb 3c 22 aa 5f bd 80 56 52 3c
       -0.19955674 0.02487348 -0.05460561 0.012838006
000180 a1 16 ae 3d 71 0a 50 3b 02 55 71 3d d4 a0 70 3d
       0.0850041 0.0031744505 0.05891896 0.058747128
000190 af ea 4c bd 7f a8 23 bd ab ad 8e bd de 97 9e 3d
       -0.0500285 -0.039955612 -0.06966718 0.0774381
0001a0 e2 7a 49 3d 3f 3c a5 bd d5 85 5f bd 2b 0d 6d bd
       0.049189456 -0.08068132 -0.05457099 -0.057873886
0001b0 dd 55 67 3d 33 28 9e bd ef df a5 bd 88 0b 2e 3d
       0.05647837 -0.07722511 -0.080993526 0.042491466
0001c0 ab 0b b2 bd b1 8b 9f bd b2 69 20 ba 5b a0 55 bd
       -0.08693632 -0.07790316 -0.00061192655 -0.05215488
0001d0 5f da a1 3c 64 b0 ac 3c b1 80 b9 bd 19 20 5b 3d
       0.019757448 0.021080203 -0.09057749 0.053497408
0001e0 71 05 27 bd 3e 9c d7 3c d5 03 ac bd ae 36 a4 3d
       -0.040776674 0.02631962 -0.083991684 0.08018242
0001f0 dd e5 8b 3d e2 bc c2 bc ae 1a 7e bd 01 9d b8 3d
       0.06830952 -0.023771707 -0.062037162 0.09014321
000200 a8 42 ce bd 3a fd 98 bd 36 9d 45 bc 4f ef ae bb
       -0.100713074 -0.07470174 -0.012061408 -0.0053385864
000210 cd f1 cc bc bd 88 3f bd 57 48 87 3c 66 4a cd bd
       -0.025017643 -0.046761263 0.016513987 -0.10023956
000220 73 de 8e bd 4a 64 9f 3c 15 46 9f 3d fc e7 38 3b
       -0.069760226 0.019457001 0.07777039 0.0028214445
000230 06 cb 9f bd 01 10 a7 bd e3 79 52 bc ff 1d 67 bb
       -0.078023955 -0.081573494 -0.012846443 -0.0035265682
000240 77 f5 19 bc 91 3d 37 bb fa ad 20 3d c5 4b c2 bd
       -0.009396902 -0.002796028 0.039228417 -0.09487108
000250 65 33 3e bd 08 9e b1 bd 05 f6 82 bd c4 70 64 3d
       -0.046435732 -0.0867272 -0.06394581 0.055771604
000260 73 b8 4e bd 84 f6 2a bc 9a d9 c9 3d 07 c7 b0 bd
       -0.050468873 -0.0104347505 0.09855957 -0.086317115
000270 62 67 0b bc 7f 82 a1 bc 92 ea 80 bd 33 eb 83 3d
       -0.008508535 -0.019715546 -0.06294741 0.06441345
000280 e9 04 13 bd b6 91 80 bd ed 0e 2e bc a8 53 7a bd
       -0.035893355 -0.06277792 -0.010623676 -0.061114937
000290 62 e5 60 3d e4 0f 38 3d 39 fe a4 bd ea 9c 92 3d
       0.054906256 0.04493703 -0.080563016 0.07158835
0002a0 e9 3e 43 3c db 19 b3 bc 4c 85 91 bc f2 dd 9c 3d
       0.011916854 -0.021862915 -0.017763756 0.0765952
0002b0 fd 5e 18 3d 6d df bb bb 21 92 c4 bd d4 f8 ad bb
       0.037199963 -0.0057334215 -0.095981844 -0.0053092036
0002c0 dc 92 67 3d d5 84 65 3d c1 3a 47 bd 90 7c e5 3b
       0.05653654 0.05603488 -0.048640016 0.0070033744
0002d0 52 4f a0 bd b1 2c 16 3d de 1c 38 bd 68 5d 62 bd
       -0.07827629 0.036663715 -0.044949405 -0.05526486
0002e0 54 49 a5 3d c0 ca a8 3d 6a 2f 34 3d 45 55 a8 bd
       0.08070627 0.082417965 0.04399053 -0.08219389
0002f0 fe fd b3 bc 35 9e a5 bd 5d 37 8b 3d 67 91 e8 bb
       -0.021971699 -0.08086816 0.06797669 -0.0070974114
000300 b9 c6 a2 3a d0 74 fe 3b 78 f2 b2 bd f5 65 bc 3d
       0.0012418843 0.00776539 -0.087376535 0.09199134
000310 0e 18 59 bd cf 31 a1 3d 45 03 c7 bd f3 09 b9 3d
       -0.053001456 0.07870828 -0.097174205 0.09035101
000320 35 0d af 3d 0b cf 88 bd 9a 18 89 3d 91 ec 69 bd
       0.08547441 -0.06680115 0.066941455 -0.057110373
000330 1e f3 ae 3d ca 24 7d 3d 21 ce b3 3d ca c6 0a bc
       0.08542465 0.061802663 0.0877955 -0.008470247
000340 dd cf 82 bd 4d ac f8 3b 20 63 b8 bc b8 0f 51 ba
       -0.06387303 0.007588899 -0.022508204 -0.00079750596
000350 4a 0b 32 bd 7b ec be bd 18 af b4 3d ea 87 5d 3c
       -0.043467797 -0.09322449 0.08822459 0.013521174
000360 6d f8 46 bd 22 96 c9 3c 38 de 9a bc 81 39 83 3c
       -0.04857676 0.024607722 -0.01890479 0.016018631
000370 0e a2 c7 3b 0d 8f 9a 3d db e0 cd bd 3c fe 90 bd
       0.0060923165 0.07546816 -0.100526534 -0.07079741
000380 b6 a1 79 bc dc 81 82 bd a7 3a 34 3d 7a 7e 25 3d
       -0.015236309 -0.06372425 0.044001248 0.04040382
000390 19 4e d4 bb 40 d3 a8 bd 62 7c 6f 3c 5f 30 47 3d
       -0.0064790365 -0.08243418 0.0146170575 0.048630115
0003a0 e0 99 27 bc 92 f4 8a 3d 87 bd 52 bd 60 93 0a bd
       -0.010229558 0.06784929 -0.05145028 -0.033831954
0003b0 e5 77 0a 3c 88 4a 97 bd 3b 5f c7 bd 2f f3 6a 3d
       0.008451437 -0.073872626 -0.09734961 0.057360824
0003c0 32 e4 ca bd 8a 98 f3 3b 03 33 d9 bc a2 89 3a bd
       -0.09906806 0.0074339556 -0.026513582 -0.045541413
0003d0 05 6c ad bd ec 66 a7 bc 92 cc cd bd 3f 15 6b bd
       -0.08467869 -0.02043482 -0.10048784 -0.05739331
0003e0 6e 19 c7 bd 07 2e c0 bc 9c 80 97 bd 65 92 0d 3d
       -0.09721647 -0.023459448 -0.07397577 0.03456344
0003f0 d2 4a 65 3d f9 62 c0 bd dd 74 d1 3b 16 8a af bd
       0.055979557 -0.093938775 0.006392105 -0.0857126

fc5.bias f4 [64]
000000 d3 18 5e be 68 fc 2b 3c 2a 85 1c bb ac cb 0d 3e
       -0.21689157 0.01049719 -0.0023883083 0.13847226
000010 ee d4 cf bd 3e c0 d0 3e 6d b4 c5 bc ad 6a c7 3e
       -0.10148035 0.4077167 -0.024133885 0.38948575
000020 7f 82 ce bd a3 c4 93 3e fa 3a 09 3d 6a f4 3f 3c
       -0.10083484 0.2886096 0.03350351 0.011715988
000030 28 7e 80 3e 79 9c c8 bd 4e 3b e5 bd d4 a1 ef bc
       0.2509625 -0.0979547 -0.11192952 -0.02925197
000040 cf d9 db 3e af 81 b3 bd e5 fa db 3e 9e 0d 30 bd
       0.42939612 -0.087649696 0.42964855 -0.042981736
000050 b6 d6 0e 3e cd 66 93 3e 8f 25 b7 3e ce 6b 8f bd
       0.13949093 0.28789368 0.35770842 -0.07002984
000060 ec 68 d7 bd 12 f9 19 bd 56 2a af 3e 2b 81 f4 3e
       -0.10518059 -0.037591048 0.34211987 0.47754797
000070 29 b4 f2 3e 4d 93 72 3e fe af 3b 3e 28 7a b3 3e
       0.47403076 0.23689003 0.18328854 0.35054135
000080 a1 c3 48 3c f2 0d 85 bd b3 e7 69 3e 50 7c 58 bd
       0.012253673 -0.064968005 0.22842292 -0.05285293
000090 72 94 f9 bd bf 63 26 3d 2e 20 8b bd 96 6a 4f bd
       -0.12186517 0.04062247 -0.06793247 -0.050638758
0000a0 ee 09 20 bd 5c c1 6c bc 12 56 b5 3e 47 99 8c bd
       -0.03907197 -0.014450397 0.3541723 -0.06865173
0000b0 1f 9d 76 bd bf 7e e5 bd a7 44 98 bc 90 eb 69 3c
       -0.060208436 -0.112058155 -0.018587423 0.014277354
0000c0 99 9b fa bc 39 a7 e2 3e fe e8 b6 3d 2d 07 1d 3c
       -0.030591773 0.44268206 0.089311585 0.00958423
0000d0 d7 44 0c bd 7b 9a ba 3d a2 c6 6a 3e b4 b2 b1 3e
       -0.03424534 0.09111496 0.22927335 0.34706652
0000e0 a3 7c d8 3e 80 67 77 bd 9e cf 71 3d 26 20 88 3c
       0.4228259 -0.06040144 0.05903589 0.016616892
0000f0 ad d4 d0 3e c9 54 92 bd 6e ea c0 3e 84 e8 a8 bd
       0.4078726 -0.07145078 0.37678856 -0.08247474

fc6.weight f4 [64, 64]
000000 12 b4 45 be 6e 3e be 3d 3c e8 9b bd e3 9c c7 bd
       -0.19306973 0.09289251 -0.076126546 -0.09746721
000010 6e 13 f1 bd b9 1d 3a 3e 5c 68 95 3d 7e d7 25 3e
       -0.11771284 0.18175401 0.072952956 0.16195485
000020 9a 01 1d 3b 8c 49 47 bd e4 97 2b 3e 2d b7 e1 bc
       0.0023957253 -0.048654124 0.1675716 -0.027553165
000030 9a 68 30 bd c1 8a 87 bd 2b b7 95 3d b7 55 8f 3d
       -0.043068506 -0.06618262 0.07310327 0.06998771
000040 f1 73 85 3d 57 9c fe bd 09 85 1e 3e a2 6a f5 bd
       0.06516255 -0.12432163 0.15480436 -0.11983229
000050 06 2c 3e bc 6a 03 b5 3d b3 72 8c 3d 10 92 79 3d
       -0.011607176 0.08838542 0.06857815 0.06093031
000060 b5 61 94 3d c4 1e 2c bd 57 d2 ef bc 33 ab 09 3e
       0.07245199 -0.042021528 -0.029275103 0.13444214
000070 8e 3e 6b 3e d2 af 32 3c bf ff 3d be 48 54 dd bd
       0.22973081 0.010906177 -0.1855459 -0.10807091
000080 3a e1 90 3c f0 9f 42 be 09 27 13 3d a8 b9 8f bd
       0.017685521 -0.19006324 0.0359259 -0.07017833
000090 c1 a5 db 3c 3c f7 ec 3d e6 a1 fc 3d e8 7c 8d 3d
       0.026812436 0.11570594 0.12335567 0.069085896
0000a0 16 2e 6c 3c 30 fa 23 3c ec e4 15 bd 19 fd b4 3d
       0.014415285 0.01000838 -0.03659527 0.08837337
0000b0 fc 07 48 bd 56 0e fa bc 40 99 ec 3d 35 89 0d 3d
       -0.04883574 -0.030524414 0.115526676 0.03455468
0000c0 44 bd 67 bd 81 92 b7 3e c8 e8 1a 3d ae d2 cc bd
       -0.056576982 0.3585396 0.037819654 -0.100011215
0000d0 46 35 e1 3c 79 b5 e6 bd 7d 3c ff be a7 70 bb 3c
       0.027491223 -0.11265082 -0.49850836 0.022880865
0000e0 dc dd 18 3e 62 a3 35 3b 73 38 2f bd 9b 04 e6 bd
       0.14928383 0.0027715792 -0.042778444 -0.11231347
0000f0 c3 82 72 3d 31 0f 59 3d df 62 c7 3d 31 18 b6 bc
       0.059206735 0.052993003 0.09735655 -0.022228332
000100 00 18 f9 bd 20 f9 b2 bc 60 2d 2f 3c 87 52 d9 bc
       -0.12162781 -0.021847308 0.010691971 -0.02652861
000110 48 aa 44 3d dc f8 df 3d 6c 38 95 bd fd 7f 73 bd
       0.048013955 0.10936138 -0.07286152 -0.05944823
000120 00 da e7 ba 99 e8 af 3c 00 81 4b bc 7c 14 c2 3d
       -0.001768887 0.021473216 -0.012420893 0.09476563
000130 cc 01 25 bd 9e a9 9f bd a6 5b 69 bd 80 15 c8 bd
       -0.040284917 -0.07796024 -0.05697217 -0.09769726
000140 f4 96 84 bc e4 60 43 3d 52 aa 07 be 7c cc 2f 3d
       -0.016185261 0.047699824 -0.13248566 0.04291962
000150 67 1e bf 3d f4 f5 9d bc 8f ed de bc 78 ce fc 3d
       0.09331971 -0.019282319 -0.027212886 0.12344068
000160 06 e9 de bd 36 08 8a bd bc c4 de 3d 13 24 bd 3d
       -0.108842894 -0.06739847 0.10877368 0.09235396
000170 60 7c d9 3d 12 75 62 bd 38 45 08 be a5 b9 e5 bd
       0.10619426 -0.05528743 -0.13307655 -0.112170495
000180 40 5e 2e bb 54 72 6a 3d bd 41 2e 3c 4c 1e 36 bd
       -0.002660647 0.057237938 0.01063579 -0.044462487
000190 ec 5e bc bd 60 8f f7 3b d2 1c bf 3d a0 f2 d6 bb
       -0.091977924 0.0075549334 0.09331669 -0.006559685
0001a0 99 be 95 3d da 72 95 3d a5 2d ed 3a e0 de e6 3c
       0.07311744 0.07297297 0.0018095268 0.028182447
0001b0 14 ae d7 bd 52 10 1d bd 53 a6 bc 3d 90 42 95 3d
       -0.1053125 -0.038345642 0.09211411 0.072880864
0001c0 79 67 e6 3b 76 f2 5f bd b0 cf 42 3c 00 80 52 39
       0.007031378 -0.05467459 0.011890337 0.00020074844
0001d0 b8 52 f0 bc 20 6d 21 3c 01 7f b2 3d 98 08 9c bd
       -0.029336318 0.009852678 0.0871563 -0.07618827
0001e0 18 c9 08 bd 99 d3 80 3d f4 b7 9f 3d 70 b8 e2 3c
       -0.033394903 0.06290359 0.07798758 0.027675837
0001f0 30 bc d7 3d dc 63 cc 3d 0b 7f 6c bd e0 68 5f 3c
       0.10533941 0.09979984 -0.057738345 0.013635844
000200 48 39 16 bd ae 13 86 bd ac c0 00 3d 16 07 93 bd
       -0.03667572 -0.06546722 0.031433746 -0.07179086
000210 00 a6 44 ba 60 79 f6 3b 90 70 ca bc 14 76 96 bd
       -0.00075015426 0.0075217932 -0.024711877 -0.0734674
000220 40 ad aa 3b 3a de 9a bd ae 7e b4 bd 1a 9a 81 3d
       0.0052086413 -0.075619176 -0.08813225 0.06328221
000230 a0 cc ff 3b e2 c2 da 3d 58 38 02 3d ec 68 9e bd
       0.0078063756 0.10681702 0.031792015 -0.07734856
000240 de 06 83 bd be f5 89 3d 6e 35 c6 bd 48 0a af bc
       -0.06397794 0.06736325 -0.0967816 -0.021367207
000250 4a 86 fe 3d 6e 00 81 3d 98 a1 b9 3c 60 d7 b1 3b
       0.12427957 0.0629891 0.022660062 0.005427286
000260 a0 49 1e bc 7e a5 96 3d 86 fa a5 bd 5e a8 bd bd
       -0.009661108 0.07355784 -0.08104424 -0.09260629
000270 b4 84 b4 3d e6 14 fb 3d 00 26 3f bd 8a ca a2 bd
       0.088143736 0.122598454 -0.0466671 -0.079487875
000280 e0 d0 c8 bd 00 91 91 3a a0 48 ab bb b0 c9 2c bd
       -0.09805465 0.0011105835 -0.0052271634 -0.04218453
000290 70 eb f5 bc 16 14 ef bd 8c 8d ba 3d c8 4d f4 bd
       -0.030019492 -0.11673753 0.09109029 -0.11928898
0002a0 e4 1c 07 3d 9c 8d ff bd 28 ba e3 3c bc cc 3b 3d
       0.032986537 -0.12478182 0.027798727 0.045849547
0002b0 78 0c 76 bd 98 c0 c3 3d 5c 4c d6 3d 80 a6 b9 3b
       -0.060070485 0.09558219 0.10463783 0.0056656003
0002c0 68 8c 69 bd c6 18 e3 bd e0 5b f3 3c 7c 5e f9 3d
       -0.057018667 -0.110887095 0.029706895 0.121762246
0002d0 30 60 52 bd 74 b5 c5 3d 68 7c f2 3c d4 66 a1 bd
       -0.051361263 0.0965375 0.029600337 -0.07880941
0002e0 fe 60 97 bd f6 b3 d8 3d 08 12 e4 3d dc 1b 24 3d
       -0.07391547 0.105812 0.11136252 0.04006563
0002f0 10 b0 a3 bc 78 d1 61 bd 6a 87 8e 3d 76 35 d6 3d
       -0.019981414 -0.055131406 0.06959422 0.104594156
000300 33 50 6d be b0 c7 3b 3d 68 d4 78 3d 19 68 99 3d
       -0.23175125 0.045844734 0.06074944 0.07490558
000310 48 07 04 bd be 83 85 3d b0 30 dd bd 88 09 00 3d
       -0.032233506 0.065192685 -0.10800302 0.03125909
000320 54 c8 7e bd 80 6f e7 3c a3 1c e7 bd 77 6f ac bb
       -0.062202767 0.02825141 -0.11284759 -0.005262311
000330 8d 26 6b bd 5e 25 9f bd 78 60 cf bd 00 1e a0 bd
       -0.05740981 -0.07770799 -0.10125822 -0.07818222
000340 bb 67 0d 3e 86 c4 ce bd a7 19 2c 3e ac 73 86 3d
       0.13809101 -0.100960776 0.1680666 0.065650314
000350 d1 12 22 be 60 98 df 3d 46 64 08 3e 3c c4 da bd
       -0.1582749 0.10917735 0.13319501 -0.1068196
000360 c7 d2 25 3c 2e 35 8d 3d b9 dd 13 3e 9e b2 58 3e
       0.010121054 0.06894909 0.14440049 0.21161887
000370 05 78 86 3e 35 2b 26 be 38 ae 0e bc e6 13 25 bc
       0.26263443 -0.1622742 -0.008708529 -0.010075545
000380 30 fe 30 3d a2 c1 27 be 30 33 56 3c 2c 8c 3e bc
       0.043211162 -0.16382459 0.0130737275 -0.011630099
000390 e2 de 28 be 48 be 7c 3d 93 0f 8f bd b8 02 4c 3d
       -0.16491273 0.061704904 -0.069853924 0.04980728
0003a0 6e 29 8e 3d a8 93 d7 bd 85 43 e7 3d 5a 1c ab 3d
       0.06941496 -0.1052621 0.11292175 0.08355017
0003b0 5b 8d 4c 3d d4 6c 5f bd 09 f7 b9 3d 73 97 ee 3c
       0.049939495 -0.054547146 0.09080321 0.029124951
0003c0 96 11 f7 bd 44 87 ce 3e 17 4b c8 bd 2d 71 dd bd
       -0.12063901 0.40337574 -0.09779947 -0.10812602
0003d0 a2 7f a4 3d ca 1a ec bd 11 f5 c2 bd 9f d5 18 3e
       0.080321565 -0.11528547 -0.09519399 0.1492524
0003e0 b0 fa 2b bd 27 b8 ab bb e1 19 c8 bd fd 16 f6 3d
       -0.04198712 -0.0052404585 -0.09770561 0.120161034
0003f0 55 f3 16 3e bc 94 16 ba 17 96 02 3d bb ae 63 bd
       0.14741261 -0.0005744209 0.031881418 -0.055586558
