Python/RL/vicsek/my_model/my_model1.pth (torch, 253901 bytes, 28 tensors)

fc1.weight f4 [64, 2]
0.6932242 -0.061902676 0.23968364 -0.06997793 -0.52776605 -0.057517465 -0.23598029 -0.59376556
0.50731504 0.42324117 -0.35356426 -0.3955314 -0.58846986 -0.52296734 -0.0042541344 -0.54717094
0.4379903 0.59972453 -0.42763633 0.0962575 0.3748932 0.36998805 -0.59760165 -0.6882591
0.12353629 -0.59982187 0.16364424 0.040243663 -0.22719394 0.31266564 0.40359038 0.34079006
0.4249874 -0.058881845 -0.2437879 -0.3280451 0.36242235 -0.5587899 -0.079936974 -0.4827806
-0.5243298 -0.02923828 0.5825732 0.51827264 -0.43727648 0.20398518 0.34072894 0.0057783327
-0.6431055 0.7054584 -0.25616145 0.54641944 0.14038146 -0.10730478 0.34926882 0.092822194
-0.63203454 0.075980395 0.51865304 -0.22323331 -0.2297074 0.465036 -0.6593196 -0.0033425821
-0.6688704 0.027836392 0.088478625 0.541786 0.333046 -0.034993768 -0.0018091956 0.02165404
-0.22265261 0.30356604 0.42815465 0.45998675 0.041188598 -0.53269696 -0.01253599 0.49481267
0.6292946 0.23769297 -0.32342792 0.048431028 -0.35492897 -0.13038313 -0.025489403 -0.4610164
-0.09840792 -0.12203544 -0.07302464 0.6129704 -0.15579878 0.2112534 0.053805847 0.57044756
-0.490182 0.12534034 0.60821265 0.033999104 0.09545351 -0.115226366 -0.3044771 0.21738291
0.50184894 -0.39840293 0.43318158 -0.38878757 0.15585078 -0.076826535 -0.64954126 0.5261079
-0.5598199 0.3370389 -0.14584562 0.13534719 -0.42269015 -0.2044794 0.33459464 -0.6301496
0.20449027 -0.29038513 0.3124309 0.11316993 0.56721956 -0.1700981 -0.22364365 -0.09098113
00000000: 2477 313f a98d 7dbd a16f 753e 9750 8fbd
00000010: ad1b 07bf 6f97 6bbd d1a4 71be 0501 18bf
00000020: 66df 013f 11b3 d83e 6006 b5be 1783 cabe
00000030: f6a5 16bf 30e1 05bf 4466 8bbb 6513 0cbf
00000040: 4440 e03e 8c87 193f 26f3 dabe a722 c53d
00000050: 00f2 bf3e 136f bd3e 6cfc 18bf c031 30bf
00000060: 9800 fd3d ed8d 19bf 5b92 273e 8ad6 243d
00000070: 87a5 68be b615 a03e 66a3 ce3e 097c ae3e
00000080: f397 d93e 172e 71bd 89a3 79be 87f5 a7be
00000090: 6c8f b93e db0c 0fbf ffb5 a3bd 052f f7be
000000a0: 7a3a 06bf 1e85 efbc 8423 153f 84ad 043f
000000b0: b4e2 dfbe 7ee1 503e 0674 ae3e 2b58 bd3b
000000c0: 90a2 24bf ec98 343f 9827 83be 25e2 0b3f
000000d0: 28c0 0f3e 9cc2 dbbd 5dd3 b23e 9019 be3d
000000e0: 04cd 21bf 9c9b 9b3d 72c6 043f 4697 64be
000000f0: 6b38 6bbe 3319 ee3e 2bc9 28bf 390f 5bbb
00000100: 173b 2bbf 2509 e43c 4834 b53d 7db2 0a3f
00000110: 0185 aa3e a055 0fbd 8822 edba d063 b13c
00000120: 0cff 63be 026d 9b3e 1637 db3e 6283 eb3e
00000130: 60b5 283d d45e 08bf c163 4dbc 1658 fd3e
00000140: 7319 213f c965 733e 5898 a5be 9d5f 463d
00000150: 40b9 b5be 2883 05be 27cf d0bc 570a ecbe
00000160: 178a c9bd b7ed f9bd f18d 95bd a1eb 1c3f
00000170: b789 1fbe d052 583e 8563 5c3d da08 123f
00000180: 23f9 fabe 3859 003e d3b3 1b3f a542 0b3d
00000190: 217d c33d cdfb ebbd 6ce4 9bbe a099 5e3e
000001a0: 2c79 003f 78fb cbbe fac9 dd3e 2a0f c7be
000001b0: 5997 1f3e 3b57 9dbd 5648 26bf 02af 063f
000001c0: 5b50 0fbf 5d90 ac3e 8e58 15be 7498 0a3e
000001d0: d86a d8be 0c63 51be fd4f ab3e 7c51 21bf
000001e0: e665 513e 5cad 94be f1f6 9f3e a3c5 e73d
000001f0: 4d35 113f 322e 2ebe d702 65be 5154 babd

fc1.bias f4 [64]
0.54025227 -0.45294905 -0.5398723 0.6525935 -0.48304012 -0.4530807 0.040222887 -0.41300708
0.061754555 -0.16460258 -0.6021346 0.48068413 0.5172287 0.56275725 0.14487524 -0.6425566
0.46691257 -0.6731891 -0.17002207 0.42621744 -0.49185178 0.61911637 -0.23320045 0.7311949
-0.4587392 -0.47451112 -0.37510693 0.4295108 0.69187427 -0.3915416 0.6246435 -0.00014077047
0.4940081 -0.6119231 0.6822498 -0.3921759 0.2278696 0.16172968 -0.4343102 -0.4649715
0.17291196 0.54595184 -0.33450386 0.3361166 0.088441625 0.55355436 0.5347295 -0.24225241
-0.3511586 -0.19302733 -0.5383065 -0.56359786 0.24157776 -0.5491889 0.5791014 0.3592332
-0.51787823 -0.22788733 -0.0067147515 -0.26214707 -0.32372817 -0.5258059 -0.08416177 0.24255231
00000000: f94d 0a3f f0e8 e7be 1235 0abf 5e10 273f
00000010: 0951 f7be 32fa e7be c1c0 243d aa75 d3be
00000020: 58f2 7c3d 948d 28be 7e25 1abf 3b1c f63e
00000030: 1a69 043f dc10 103f 2d5a 143e 977e 24bf
00000040: 2a0f ef3e 1f56 2cbf 441a 2ebe 2c39 da3e
00000050: ffd3 fbbe 697e 1e3f 19cc 6ebe 972f 3b3f
00000060: dddf eabe 1ff3 f2be 040e c0be d7e8 db3e
00000070: ac1e 313f 2478 c8be a3e8 1f3f c99b 13b9
00000080: a1ee fc3e fea6 1cbf eca7 2e3f 48cb c8be
00000090: a656 693e 779c 253e e85d debe bf10 eebe
000000a0: d50f 313e 80c3 0b3f 1744 abbe 7a17 ac3e
000000b0: e220 b53d bdb5 0d3f 08e4 083f 0411 78be
000000c0: 0fcb b3be f5a8 45be 74ce 09bf f347 10bf
000000d0: 2960 773e a597 0cbf fd3f 143f 6aed b73e
000000e0: ab93 04bf 4c5b 69be 6b07 dcbb 2438 86be
000000f0: b3bf a5be 379b 06bf 025d acbd a25f 783e

fc2.weight f4 [64, 64]
0.034376893 -0.099641815 0.07483429 0.06542636 0.03509237 0.11324595 0.10933606 -0.002434805
-0.104856476 -0.023933053 0.0170594 -0.06679015 0.065537415 -0.01880038 0.1266232 0.11059034
-0.113738686 -0.065610185 0.02709581 0.08058855 -0.02249442 0.091568716 -0.12073265 -0.062628165
0.07842389 0.0051879734 0.083842754 -0.05777717 0.042823557 -0.10570975 -0.06835289 -0.091641575
0.02222456 0.08728239 -0.05805295 0.018951878 0.037752327 0.10114976 -0.014149338 -0.061477095
0.12073838 0.029708123 -0.066273734 0.020445637 -0.11281435 -0.0013012703 0.015073503 -0.10463154
-0.037707984 0.10882525 -0.069739476 -0.07095875 -0.013227141 0.012807205 -0.0084479 0.06487882
-0.09026793 0.078881055 0.056372598 -0.097173244 0.07451747 -0.005405724 -0.05916114 0.057386044
-0.077783145 -0.051105723 -0.07599515 0.10661017 0.013594717 0.0010142624 -0.021123337 -0.06230223
0.10333271 -0.051274985 -0.019306809 0.019964762 -0.011281822 0.016518192 0.048946977 -0.12398337
0.043325815 0.0044752806 -0.09460528 -0.10922701 0.05635768 -0.038815532 0.063671514 -0.013711823
0.122784436 0.12455878 -0.027486995 0.006112241 0.0029821938 0.1193084 0.12590352 0.041295156
0.0923432 -0.024793372 0.007644739 -0.11103976 0.07981581 0.0964711 -0.039759487 0.08696282
-0.027716896 0.10624812 0.05206056 0.004122558 0.12144266 0.12253991 0.096487224 -0.066888615
0.11204991 0.030660436 0.032538563 -0.062278986 -0.024281574 -0.077628985 -0.037685588 -0.03748952
-0.010934487 -0.059464455 0.038317442 0.025641471 -0.015573218 0.0069684237 -0.00010475516 -0.01836315
-0.035063062 -0.041445866 0.000686869 -0.0011034596 -0.0076888353 -0.020832375 0.015167118 0.11196251
0.021329634 0.09583266 0.0772941 0.016555885 -0.051485725 0.10085679 0.00041345955 0.028412178
-0.04531887 0.05707939 -0.10964589 0.082263075 -0.06691094 0.053806357 -0.023060441 0.12562893
-0.029828697 0.012943566 0.01963006 0.12419657 -0.051272027 0.033716127 0.1417976 -0.073127404
0.034737054 0.081830844 0.139774 0.053160444 -0.02185263 0.0077573094 0.056428686 -0.024661168
0.021907056 0.12323611 0.04151559 -0.07641282 0.07365869 -0.02075429 -0.059385505 0.039447248
-0.12087414 -0.11758241 0.046832755 0.10599978 0.046009388 0.012589961 0.0054833605 0.014602291
-0.08076109 -0.12204267 0.09597406 -0.10934411 0.05045308 -0.004710421 -0.10993433 -0.032017622
0.069082476 0.06862378 0.08456169 -0.0447205 -0.097137615 0.047563493 0.05694226 0.100480825
0.046438705 0.04049763 -0.051009417 -0.03078705 -0.06914746 -0.014871783 0.05033234 -0.012439027
0.088125445 0.06734672 -0.063575774 0.044449203 0.11651839 -0.030849911 -0.0125578195 -0.05162197
-0.11178465 -0.10836522 0.06327067 0.09864477 -0.010455043 0.07692303 0.004926417 -0.1230614
-0.09422893 -0.097172126 0.06128513 -0.09908591 0.08583177 0.074226335 0.045425802 -0.02077584
0.058432598 -0.109080024 -0.12332255 -0.029586839 -0.08929815 -0.046693403 0.120504804 -0.09987497
0.100440666 0.062108517 -0.05726844 0.03321013 0.02035289 -0.06885424 -0.05469204 -0.039363753
0.081040934 -0.034675628 -0.042878762 -0.05120775 -0.07786286 -0.09123959 -0.038574785 -0.036736075
00000000: c9ce 0c3d 0211 ccbd b842 993d 41fe 853d
00000010: 04bd 0f3d 7eed e73d 96eb df3d 4091 1fbb
00000020: febe d6bd 400f c4bc 28c0 8b3c 46c9 88bd
00000030: 7b38 863d 4103 9abc 83a9 013e 307d e23d
00000040: d4ef e8bd a25e 86bd 08f8 dd3c 9c0b a53d
00000050: 3846 b8bc 6188 bb3d ae42 f7bd 3243 80bd
00000060: b49c a03d e0ff a93b c0b5 ab3d c1a7 6cbd
00000070: c167 2f3d 5a7e d8bd 9afc 8bbd 94ae bbbd
00000080: 4810 b63c 1cc1 b23d eec8 6dbd f840 9b3c
00000090: 2fa2 1a3d 9b27 cf3d a0d2 67bc 68cf 7bbd
000000a0: af45 f73d 735e f33c 86ba 87bd 9c7d a73c
000000b0: 360b e7bd 638f aaba dbf6 763c 1049 d6bd
000000c0: b073 1abd c6df de3d 92d3 8ebd d252 91bd
000000d0: a7b6 58bc 50d5 513c 1069 0abc 30df 843d
000000e0: 64de b8bd 648c a13d f4e6 663d c402 c7bd
000000f0: 9e9c 983d 8022 b1bb f452 72bd a10d 6b3d
00000100: c54c 9fbd 3c54 51bd 58a3 9bbd 6f56 da3d
00000110: 60bc 5e3c 00f1 843a d90a adbc a030 7fbd
00000120: 1aa0 d33d b805 52bd 5029 9ebc 248d a33c
00000130: 64d7 38bc 2951 873c a07c 483d feea fdbd
00000140: 6976 313d 60a5 923b 6ac0 c1bd 69b2 dfbd
00000150: 50d7 663d 09fd 1ebd 3666 823d 8ea7 60bc
00000160: 6876 fb3d ac18 ff3d 682c e1bc 3249 c83b
00000170: e970 433b f657 f43d daec 003e 1c25 293d
00000180: 6f1e bd3d 781b cbbc b880 fa3b d068 e3bd
00000190: 7976 a33d a492 c53d d8da 22bd 9019 b23d
000001a0: 8b0e e3bc 9d98 d93d 743d 553d 8616 873b
000001b0: eeb6 f83d 34f6 fa3d 189b c53d e6fc 88bd
000001c0: 6c7a e53d 982b fb3c 2847 053d 4018 7fbd
000001d0: 27ea c6bc f2fb 9ebd 345c 1abd 9c8e 19bd
000001e0: 9026 33bc 0091 73bd c0f2 1c3d 100e d23c
000001f0: d026 7fbc 6057 e43b 00b0 dbb8 516e 96bc
00000200: 499e 0fbd 24c3 29bd 000f 343a f6a1 90ba
00000210: a0f2 fbbb a8a8 aabc 817f 783c 9a4c e53d
00000220: 7cbb ae3c ea43 c43d 5e4c 9e3d 35a0 873c
00000230: b2e2 52bd 018e ce3d 9ac5 d839 a8c0 e83c
00000240: 48a0 39bd 14cc 693d 068e e0bd 8b79 a83d
00000250: 9a08 89bd 0e64 5c3d 40e9 bcbc dfa4 003e
00000260: 505b f4bc 4011 543c 38cf a03c c55a fe3d
00000270: 9e02 52bd ec19 0a3d 6433 113e d2c3 95bd
00000280: 7148 0e3d ee96 a73d ea20 0f3e c4be 593d
00000290: 4904 b3bc 0731 fe3b c421 673d 3806 cabc
000002a0: 6d76 b33c 3763 fc3d 400c 2a3d 537e 9cbd
000002b0: 5eda 963d e704 aabc 373e 73bd 7093 213d
000002c0: dc8c f7bd 0ccf f0bd b4d3 3f3d 6a16 d93d
000002d0: 5774 3c3d 2046 4e3c c3ad b33b 733e 6f3c
000002e0: 1266 a5bd 82f1 f9bd 0c8e c43d ceef dfbd
000002f0: e4a7 4e3d e059 9abb 4025 e1bd e924 03bd
00000300: 1d7b 8d3d a08a 8c3d ae2e ad3d d82c 37bd
00000310: 16f0 c6bd f0d1 423d 4a3c 693d e4c8 cd3d
00000320: 8336 3e3d d8e0 253d 40ef 50bd 2035 fcbc
00000330: 2f9d 8dbd c7a8 73bc 4929 4e3d 10cd 4bbc
00000340: 1d7b b43d 14ed 893d 0434 82bd 5e10 363d
00000350: 32a1 ee3d f4b8 fcbc 50bf 4dbc 8f71 53bd
00000360: 5aef e4bd 96ee ddbd 0e94 813d 4506 ca3d
00000370: a14b 2bbc d289 9d3d c86d a13b 9e07 fcbd
00000380: 19fb c0bd 2e02 c7bd 1e06 7b3d 8eed cabd
00000390: 91c8 af3d fa03 983d 6810 3a3d 1832 aabc
000003a0: 0557 6f3d 5965 dfbd 8890 fcbd 1960 f2bc
000003b0: f3e1 b6bd 9541 3fbd 39cb f63d 408b ccbd
000003c0: d6b3 cd3d 8065 7e3d 5092 6abd 5807 083d
000003d0: 1bbb a63c 7403 8dbd c304 60bd e33b 21bd
000003e0: caf8 a53d 0808 0ebd a4a1 2fbd 38bf 51bd
000003f0: 9076 9fbd d2db babd 9800 1ebd 9178 16bd

fc2.bias f4 [64]
0.10374458 0.037095457 0.124299526 0.013310074 -0.049035937 -0.02566159 0.06139173 0.10457969
-0.084855676 -0.06366739 -0.08751324 -0.1045337 -0.048141614 -0.01663034 0.09526311 0.09588239
0.026195858 0.07082418 0.047570005 -0.09921844 0.13640438 0.04664193 0.08788336 -0.0009936243
-0.036465585 -0.0859687 -0.012916386 0.038723968 -0.023288239 0.13943441 -0.016804121 0.09016325
-0.084785834 0.021784663 0.052607596 0.06568639 0.00841457 0.09844977 -0.08565225 0.14398164
-0.111406796 -0.0021621734 0.045039646 0.016994242 -0.06758061 0.062165722 -0.06416894 0.09211611
-0.12213038 0.06230449 -0.07499902 0.058982164 -0.025381014 -0.11909054 -0.007999897 0.09219131
0.10139154 0.073602766 0.12234332 -0.042449787 -0.08197947 0.054328743 -0.06718634 0.07533118
00000000: 0a78 d43d 68f1 173d c090 fe3d 7f12 5a3c
00000010: e8d9 48bd 4138 d2bc e575 7b3d e02d d63d
00000020: d0c8 adbd 0c64 82bd 243a b3bd c415 d6bd
00000030: 2430 45bd 5a3c 88bc 4e19 c33d fd5d c43d
00000040: b298 d63c 450c 913d c4d8 423d 0a33 cbbd
00000050: 97ad 0b3e 9c0b 3f3d 31fc b33d 803c 82ba
00000060: f05c 15bd 5c10 b0bd 409f 53bc 069d 1e3d
00000070: fac6 bebc e5c7 0e3e cca8 89bc 83a7 b83d
00000080: 32a4 adbd c075 b23c 107b 573d 9686 863d
00000090: 44dd 093c 08a0 c93d 726a afbd ec6f 133e
000000a0: 3f29 e4bd 40b3 0dbb 7e7b 383d 8237 8b3c
000000b0: b467 8abd 7ca1 7e3d 016b 83bd 5fa7 bc3d
000000c0: 7e1f fabd fe32 7f3d 1699 99bd 4897 713d
000000d0: d8eb cfbc bee5 f3bd 0012 03bc ccce bc3d
000000e0: 5ea6 cf3d 0cbd 963d 228f fa3d d4df 2dbd
000000f0: dae4 a7bd d187 5e3d fe98 89bd 3c47 9a3d

fc3.weight f4 [96, 64]
0.120320186 -0.013778657 0.11527051 0.04100257 -0.100614145 -0.06395656 -0.0989742 -0.0694101
0.056185275 -0.08530983 0.06642264 0.06936751 0.056397796 -0.033176467 0.017053112 -0.076187104
0.03563665 0.046283692 0.08074562 0.051267132 -0.12272307 0.06252852 -0.011156678 -0.1141087
0.09038159 0.028754815 0.09841439 0.091278 -0.09589255 0.06457083 -0.08171138 -0.091885775
-0.11871567 0.0013690144 -0.08888543 0.021960005 -0.06898275 -0.004192278 0.111592606 -0.03797987
-0.085452884 0.009634346 -0.0277147 -0.10910916 -0.09329431 0.0058300346 -0.033428594 0.08478509
0.025331438 -0.016106486 0.06371839 0.028799564 0.109029055 -0.113235846 0.048929065 -0.070294514
-0.08179806 -0.0058161467 -0.040341467 0.06870787 0.059938684 0.028529227 -0.10504055 0.016089618
0.0020264685 -0.037387814 -0.04376962 0.09655258 0.10157405 0.10620309 5.8073943e-05 -0.050000004
0.09132083 0.04679516 -0.10221593 -0.04964499 -0.03795606 -0.00076101243 0.10574265 -0.053338464
0.074373 0.11281993 0.10010025 0.016404256 0.10665649 0.03630069 0.04347399 0.045590147
0.051265076 -0.06741531 0.038065746 0.1287239 0.03071416 0.10545496 -0.103327535 0.12533948
0.118653655 -0.053160116 0.12372561 -0.015421578 0.12682165 0.081890404 -0.08550151 -0.099140964
-0.02468691 -0.034820423 0.044442095 0.11625875 0.041337535 0.0912472 0.11690095 0.05727012
-0.08845945 8.9664e-05 -0.12248106 -0.020348758 0.04688725 -0.07281238 0.0603265 0.12789921
0.097180866 0.08424892 0.0068735764 -0.04110992 0.06485236 0.1197347 -0.1138722 -0.096840076
0.10574723 -0.0828249 -0.042692702 0.0738451 -0.105947465 0.124238975 0.09668724 0.015330712
-0.013309047 -0.05489637 0.017570123 0.008823797 0.06601602 0.04708001 -0.024272978 -0.013240196
-0.017658731 -0.07784691 -0.0771628 0.123372465 0.007845244 0.096705005 0.04456471 -0.117311925
-0.023764104 -0.072104335 -0.1081744 -0.052637137 -0.015824629 -0.02772062 0.05520254 -0.016065154
0.095181525 -0.06873573 -0.09190892 0.06489609 0.001837486 -0.02449064 -0.026237532 0.0902074
0.017375076 -0.09312524 0.10389167 0.06885324 -0.08663623 -0.07737386 0.090885535 -0.006576159
0.100797355 -0.014815523 -0.044504926 0.11734615 -0.03316295 -0.048625097 0.045436308 0.088173226
0.0065935203 0.026656412 0.053608254 -0.09202106 0.10335484 -0.0675402 -0.086848125 0.051390685
0.08628671 0.08142954 0.021874664 0.060787786 -0.047946915 0.015905883 -0.060443223 -0.013686261
-0.011160046 0.10864924 -0.09189963 0.10763164 -0.09140429 -0.09581822 0.122953564 -0.09565324
0.028217208 0.03581176 -0.06624408 0.022364512 0.025192535 -0.018569618 0.014135348 -0.052782565
-0.11367625 -0.0843796 0.114407614 -0.09730157 0.08817379 -0.057063565 0.0071419524 -0.043994796
-0.07896373 -0.05152674 0.07309509 -0.017726813 -0.0910754 -0.02399756 0.058519438 0.010201359
0.09862144 -0.0023866594 -0.11605573 -0.0038217134 -0.11410953 -0.11139798 -0.047995362 -0.022742491
-0.12001303 -0.09391768 0.1154097 -0.030290842 0.0304683 -0.11279684 0.08703545 0.027083261
-0.032594796 -0.013999269 0.052265182 -0.066081 -0.080782324 0.061169155 -0.09024972 -0.10039155
00000000: 6e6a f63d e0bf 61bc f212 ec3d 50f2 273d
00000010: ca0e cebd a8fb 82bd fcb2 cabd e226 8ebd
00000020: 8822 663d ecb6 aebd 9808 883d 8e10 8e3d
00000030: 6001 673d 0ce4 07bd f8b2 8b3c fc07 9cbd
00000040: bcf7 113d f893 3d3d f65d a53d 7cfd 513d
00000050: 3c56 fbbd f40e 803d 80ca 36bc d2b1 e9bd
00000060: fc19 b93d 388f eb3c 7c8d c93d f6ef ba3d
00000070: 5063 c4bd b63d 843d 4c58 a7bd 9c2e bcbd
00000080: 3421 f3bd 8070 b33a 9009 b6bd 78e5 b33c
00000090: d446 8dbd 605f 89bb aa8a e43d c890 1bbd
000000a0: ec01 afbd 60d9 1d3c f009 e3bc a074 dfbd
000000b0: 1611 bfbd e009 bf3b 6cec 08bd cea3 ad3d
000000c0: e083 cf3c c0f1 83bc ca7e 823d 10ed eb3c
000000d0: a04a df3d 32e8 e7bd d869 483d 92f6 8fbd
000000e0: be85 a7bd 6095 bebb 183d 25bd b6b6 8c3d
000000f0: 4482 753d 20b6 e93c 801f d7bd 60ce 833c
00000100: 80ce 043b f723 19bd c647 33bd 5cbd c53d
00000110: 0e06 d03d 0181 d93d 6c94 7338 cecc 4cbd
00000120: 6a06 bb3d 48ac 3f3d 9656 d1bd 8c58 4bbd
00000130: d077 1bbd ae7e 47ba 9a8f d83d 6f79 5abd
00000140: df50 983d 230e e73d 5c01 cd3d 3862 863c
00000150: b86e da3d 08b0 143d c811 323d bcbc 3a3d
00000160: 54fb 513d 0a11 8abd d4ea 1b3d 33d0 033e
00000170: 439c fb3c c5f8 d73d 639d d3bd fe58 003e
00000180: b000 f33d 6cbe 59bd da63 fd3d c9aa 7cbc
00000190: 89dd 013e 28b6 a73d 6a1b afbd 6b0a cbbd
000001a0: 343c cabc dc9f 0ebd ea08 363d 1119 ee3d
000001b0: 8c51 293d d0df ba3d c469 ef3d 1394 6a3d
000001c0: 3a2a b5bd fe09 bc38 5ad7 fabd 70b2 a6bc
000001d0: d80c 403d a81e 95bd ec18 773d 03f8 023e
000001e0: c306 c73d b38a ac3d bd3b e13b e062 28bd
000001f0: 50d1 843d 7737 f53d d435 e9bd 1754 c6bd
00000200: 0192 d83d 1aa0 a9bd 8bde 2ebd 1a3c 973d
00000210: fcfa d8bd 0171 fe3d f603 c63d ab2d 7b3c
00000220: 300e 5abc 04db 60bd 38ef 8f3c b091 103c
00000230: 6833 873d f8d6 403d 20d8 c6bc 68ed 58bc
00000240: 0ba9 90bc 336e 9fbd 8807 9ebd b4aa fc3d
00000250: 5789 003c 460d c63d 7c89 363d 3c41 f0bd
00000260: f0ac c2bc 70ab 93bd 8a8a ddbd 0a9a 57bd
00000270: a7a2 81bc 5b16 e3bc 0f1c 623d 129b 83bc
00000280: 88ee c23d 52c5 8cbd be3a bcbd 3ee8 843d
00000290: cdd7 f03a 98a0 c8bc 18f0 d6bc a8be b83d
000002a0: 2d56 8e3c 72b8 bebd 28c5 d43d ed02 8d3d
000002b0: 566e b1bd 3076 9ebd 3222 ba3d d27c d7bb
000002c0: d86e ce3d cfbc 72bc cc4a 36bd 2e53 f03d
000002d0: e0d5 07bd 1c2b 47bd 6c1b 3a3d 2a94 b43d
000002e0: 750e d83b 8c5e da3c 5494 5b3d 8a75 bcbd
000002f0: b4ab d33d 8452 8abd 6edd b1bd 0a7f 523d
00000300: 16b7 b03d 88c4 a63d 7f32 b33c 9dfc 783d
00000310: fc63 44bd 0e4d 823c 5093 77bd 573c 60bc
00000320: a0d8 36bc 7e83 de3d e035 bcbd fa6d dc3d
00000330: 2c32 bbbd 583c c4bd 14cf fb3d d9e5 c3bd
00000340: c627 e73c 5aaf 123d faaa 87bd c835 b73c
00000350: 9360 ce3c 501f 98bc f297 673c 8832 58bd
00000360: 18cf e8bd 36cf acbd 8a4e ea3d 0c46 c7bd
00000370: 7694 b43d 7cbb 69bd 0a07 ea3b e333 34bd
00000380: bcb7 a1bd b40d 53bd e1b2 953d d237 91bc
00000390: bd85 babd 8896 c4bc 14b2 6f3d 9a23 273c
000003a0: 0afa c93d 8069 1cbb a0ae edbd b675 7abb
000003b0: 42b2 e9bd a024 e4bd c996 44bd 764e babc
000003c0: 64c9 f5bd ea57 c0bd ec5b ec3d 8024 f8bc
000003d0: a898 f93c 0802 e7bd a43f b23d b7dd dd3c
000003e0: 1f82 05bd 315d 65bc 0414 563d 7a55 87bd
000003f0: 3471 a5bd 828c 7a3d d8d4 b8bd 169a cdbd

fc3.bias f4 [96]
0.07804988 0.07454138 0.10018156 0.046881426 0.14947504 0.036946543 -0.10798627 -0.037517846
-0.04109487 0.13492517 -0.036553413 0.036183834 -0.10545665 -0.084267706 0.08494818 -0.07076178
0.13760233 -0.019099146 0.022901297 0.11188674 -0.032153357 -0.06319573 0.065499745 0.1461291
-0.11529681 0.07077983 -0.08911429 0.12591927 0.12087075 0.11119947 0.02008692 0.06262185
-0.025572717 0.07563454 -0.03993067 0.006678787 -0.035963252 -0.0264256 -0.046188977 -0.093673855
-0.10845493 -0.0931513 0.010742631 -0.06506844 0.13440976 0.04522761 0.11481543 0.04491049
0.028500527 0.1275263 -0.011180799 -0.10311887 0.04899366 -0.06960693 0.113058925 -0.05430226
0.0058915466 0.024134263 -0.028634211 -0.06290428 -0.0938908 -0.006224134 -0.036113545 -0.013729264
0.05413483 0.018484723 0.028623937 0.034349617 0.018299088 0.018974528 0.117452085 -0.010030016
0.13962553 0.09585983 0.008157622 -0.029490614 0.062311847 0.06170704 0.016712515 0.017685786
0.020122124 -0.04003997 -0.04284148 -0.016674027 -0.06333123 0.0632485 -0.066437185 -0.002978573
0.022460297 -0.06989588 -0.11364004 -0.08505468 0.090998694 0.102622926 -0.050549567 -0.06951845
00000000: 9ed8 9f3d 27a9 983d fd2b cd3d bd06 403d
00000010: fc0f 193e 4255 173d e827 ddbd 50ac 19bd
00000020: 1853 28bd d329 0a3e 08b9 15bd 8035 143d
00000030: a8f9 d7bd 8c94 acbd 50f9 ad3d 8deb 90bd
00000040: a0e7 0c3e d075 9cbc 809b bb3c e024 e53d
00000050: 3db3 03bd c36c 81bd bb24 863d dea2 153e
00000060: bc20 ecbd 04f5 903d 8e81 b6bd fbf0 003e
00000070: 158b f73d 8cbc e33d 538d a43c e23f 803d
00000080: e07d d1bc 48e6 9a3d 588e 23bd bad9 da3b
00000090: 344e 13bd 807a d8bc a730 3dbd 14d8 bfbd
000000a0: 9e1d debd 1cc6 bebd dc01 303c 9a42 85bd
000000b0: b6a2 093e 9640 393d 5a24 eb3d 10f4 373d
000000c0: f079 e93c 4196 023e ac2f 37bc fc2f d3bd
000000d0: 93ad 483d 148e 8ebd 708b e73d 0c6c 5ebd
000000e0: e00d c13b 38b5 c53c 4b92 eabc f6d3 80bd
000000f0: d249 c0bd d2f3 cbbb cceb 13bd b5f0 60bc
00000100: 7cbc 5d3d 466d 973c bf7c ea3c 2fb2 0c3d
00000110: f8e7 953c 7870 9b3c b88a f03d f054 24bc
00000120: fff9 0e3e 2952 c43d 8ca7 053c 4d96 f1bc
00000130: b53a 7f3d 85c0 7c3d afe8 883c c8e1 903c
00000140: 27d7 a43c f400 24bd 8c7a 2fbd f897 88bc
00000150: ceb3 81bd 6e88 813d 3810 88bd 2a34 43bb
00000160: a8fe b73c 9225 8fbd 1cbc e8bd 2631 aebd
00000170: 865d ba3d f82b d23d 100d 4fbd b05f 8ebd

fc4.weight f4 [96, 96]
0.008228992 -0.014116063 0.058808435 0.07483629 0.012126545 0.057732675 -0.09419641 0.07080548
0.062840775 0.101864256 0.09722073 -0.062461015 0.0027317025 -0.0037454115 0.097448505 0.115372315
-0.028080076 0.08290288 0.010983337 0.03890741 0.09828613 0.055169165 0.022346666 0.11307146
-0.04670851 -0.07299408 -0.039240498 0.09154805 0.025985632 0.039680306 0.026647484 0.011614282
-0.009027447 -0.004440729 0.047571626 -0.046877306 0.04375744 0.034800973 0.05257028 -0.023054296
-0.0585516 -0.08775104 0.049568612 0.0620614 0.055311512 -0.07505759 0.045046184 -0.08564992
-0.019154463 -0.0018631162 0.04387231 0.001781662 0.045981735 -0.068685524 0.029940357 -0.028644612
-0.08315498 -0.041270606 -0.0021384556 -0.0050526555 -0.028715033 0.013888316 -0.07734803 -0.053048898
0.07786005 -0.026141731 -0.06303684 0.024551483 0.0026377023 -0.02284304 -0.039074562 -0.08082222
-0.04173279 -0.017636286 0.067618206 0.11523328 0.10063171 0.08965988 0.0018017674 -0.08393722
0.03992109 0.0051401467 0.0980581 -0.040976584 -0.086955614 -0.06568842 -0.10177513 -0.0241235
-5.335119e-05 -0.093441084 -0.07416341 -0.024198748 -0.009152142 -0.007893446 -0.04334057 0.07341132
0.008894708 -0.066997096 0.022874983 -0.06535414 -0.023482408 0.02042654 0.09975362 0.06769278
0.049301147 -0.01481752 0.0061841267 -0.09270332 -0.008610894 0.09502409 -0.06268946 0.04614283
0.0036805286 0.029633502 0.09842089 -0.06269615 -0.0017897529 -0.038836733 -0.09489662 0.04314892
-0.047497634 -0.042368386 -0.07834545 0.024782073 -0.008328009 -0.106318474 -0.008955314 -0.107590154
-0.029949289 0.09616252 0.038011957 -0.037397474 0.055691157 -0.02709829 -0.043888465 0.056994133
-0.07358837 0.008296055 -0.04956536 0.026743788 -0.05718898 -0.08758391 -0.020195805 -0.009245329
0.0019237332 -0.05147425 0.08336298 0.03744964 0.04807785 -0.029190594 0.02231379 -0.021758756
-0.022808272 0.026900886 -0.043679737 0.073331825 -0.077724904 -0.09400235 -0.018506974 -0.009606824
-0.064080864 0.047506496 0.06391657 0.041283984 -0.060254626 0.010659762 0.08727985 0.05146853
0.07987861 -0.077834606 -0.031151066 -0.071444705 -0.021172836 -0.05809992 0.08104513 -0.019332973
0.09330055 -0.08008921 -0.086037315 0.013993572 0.091535665 0.00797909 -0.08942793 0.059840504
-0.02538407 -0.10195015 -0.024100734 -0.033185657 -0.0878117 0.07933049 -0.055195592 -0.09287136
0.032477647 0.061313685 0.04726239 0.09106874 0.046522867 0.08759589 0.006779178 -0.09420873
-0.07893771 0.08102651 -0.011542776 -0.06527594 -0.032703597 0.0697801 -0.081782356 0.026592085
0.095812 -0.09647744 0.006587576 -0.027070807 -0.00553528 0.07123648 -0.07903194 -0.034283515
0.07802853 -0.056033023 -0.0035152654 0.046427343 -0.036222726 0.070371516 -0.015599965 0.076356925
-0.04668314 0.08266681 0.10355883 0.07758784 -0.061607033 -0.035524737 0.043718737 -0.019056277
0.047714468 -0.028228119 -0.055839065 -0.05413861 0.021653002 0.097275056 0.08751374 -0.06305387
-0.032474667 -0.01965168 -0.050526362 -0.06230634 -0.08314989 -0.0669855 0.05337494 -0.0025398207
0.06123974 0.01236964 0.09680478 0.06648082 0.08931211 -0.10112973 -0.015352343 0.0711934
00000000: e5d2 063c 0f47 67bc 1de1 703d c543 993d
00000010: 6bae 463c 1979 6c3d 0cea c0bd 7702 913d
00000020: aab2 803d 359e d03d a91b c73d 1fd7 7fbd
00000030: 5d06 333b 9475 75bb 1593 c73d 5248 ec3d
00000040: 3008 e6bc fcc8 a93d 74f3 333c 605d 1f3d
00000050: 3d4a c93d 10f9 613d 5b10 b73c 0292 e73d
00000060: 6c51 3fbd ec7d 95bd a5ba 20bd 8b7d bb3d
00000070: d2df d43c d187 223d d34b da3c d449 3e3c
00000080: dbe7 13bc 8983 91bb 77da 423d 6b02 40bd
00000090: 003b 333d 778b 0e3d ef53 573d 5ddc bcbc
000000a0: cdd3 6fbd d1b6 b3bd 7508 4b3d 1834 7e3d
000000b0: 538e 623d cbb7 99bd 5982 383d 3a69 afbd
000000c0: d2e9 9cbc ce33 f4ba 74b3 333d a886 e93a
000000d0: 5857 3c3d ffaa 8cbd 7b45 f53c 1ba8 eabc
000000e0: 284d aabd 5e0b 29bd 5525 0cbb bf90 a5bb
000000f0: ca3b ebbc d28b 633c a568 9ebd cd49 59bd
00000100: 1775 9f3d 2f27 d6bc 7519 81bd 3120 c93c
00000110: 4ddd 2c3b 5421 bbbc a60c 20bd 1f86 a5bd
00000120: 01f0 2abd f979 90bc 6a7b 8a3d 6dff eb3d
00000130: ff17 ce3d 999f b73d 4829 ec3a 47e7 abbd
00000140: 4c84 233d ad6e a83b afd2 c83d 10d7 27bd
00000150: c915 b2bd a687 86bd 7b6f d0bd a59e c5bc
00000160: 67c5 5fb8 0a5e bfbd fce2 97bd 743c c6bc
00000170: def2 15bc 8353 01bc e285 31bd ad58 963d
00000180: 1cbb 113c c635 89bd 5164 bb3c 64d8 85bd
00000190: 2e5e c0bc 8f55 a73c a04b cc3d 83a2 8a3d
000001a0: 00f0 493d 2fc5 72bc 37a4 ca3b 3ddb bdbd
000001b0: b514 0dbc fd9b c23d 5563 80bd 4400 3d3d
000001c0: 0635 713b f5c1 f23c e490 c93d d766 80bd
000001d0: 2496 eaba 4413 1fbd 2959 c2bd ecbc 303d
000001e0: e18c 42bd 798a 2dbd 9473 a0bd c603 cb3c
000001f0: 3472 08bc 80bd d9bd 4fb9 12bc 3a58 dcbd
00000200: 3658 f5bc dbf0 c43d 6db2 1b3d 182e 19bd
00000210: 691c 643d 3cfd ddbc 64c4 33bd ae72 693d
00000220: 80b5 96bd 2dec 073c 0c05 4bbd ca15 db3c
00000230: fe3e 6abd 315f b3bd ac71 a5bc b879 17bc
00000240: c625 fc3a aad6 52bd 36ba aa3d cb64 193d
00000250: 48ed 443d 1d21 efbc 69cb b63c 6b3f b2bc
00000260: 6ad8 babc 3f5f dc3c 86e9 32bd ff2e 963d
00000270: 3c2e 9fbd 4e84 c0bd f09b 97bc f165 1dbc
00000280: d43c 83bd 2c96 423d b1e6 823d 6519 293d
00000290: 8ecd 76bd 48a6 2e3c c7bf b23d aad0 523d
000002a0: 6697 a33d c067 9fbd 8530 ffbc 9a51 92bd
000002b0: a872 adbc 2ffa 6dbd fdfa a53d 2f60 9ebc
000002c0: 5c14 bf3d d005 a4bd 5534 b0bd 4c45 653c
000002d0: 0d77 bb3d bbba 023c fe25 b7bd 511b 753d
000002e0: 41f2 cfbc 3ecb d0bd e76e c5bc afed 07bd
000002f0: 9fd6 b3bd 0678 a23d c614 62bd 5733 bebd
00000300: 4807 053d 0f24 7b3d 3596 413d 3f82 ba3d
00000310: c38e 3e3d 7965 b33d de23 de3b 82f0 c0bd
00000320: 18aa a1bd 3af1 a53d e91d 3dbc 64af 85bd
00000330: 35f4 05bd dee8 8e3d 827d a7bd a5d7 d93c
00000340: 1539 c43d f795 c5bd 98dc d73b 99c3 ddbc
00000350: 4b61 b5bb 6ee4 913d 7fdb a1bd df6c 0cbd
00000360: 6ccd 9f3d e282 65bd 5e60 66bb 992a 3e3d
00000370: 485e 14bd f11e 903d ff96 7fbc 0561 9c3d
00000380: d236 3fbd 374d a93d a716 d43d 60e6 9e3d
00000390: a857 7cbd 6382 11bd 6b12 333d e91b 9cbc
000003a0: 3f70 433d a83e e7bc 81b7 64bd 72c0 5dbd
000003b0: a361 b13c 2538 c73d 673a b33d 6322 81bd
000003c0: 2804 05bd 8ffc a0bc bbf4 4ebd ef34 7fbd
000003d0: 7d4a aabd b22f 89bd ae9f 5a3d 1f73 26bb
000003e0: 86d6 7a3d 08aa 4a3c 9641 c63d 1927 883d
000003f0: 44e9 b63d 1b1d cfbd 6588 7bbc d8cd 913d

fc4.bias f4 [96]
0.04565863 -0.0155641 0.03092223 -0.051552966 0.014569033 0.033234738 0.013489067 -0.08959278
-0.037100464 0.010082158 0.061906606 -0.046644606 -0.05933561 -0.014325199 -0.019253816 0.084226616
-0.059588313 0.12614356 0.11234276 0.098296724 0.03635498 0.00642305 0.029706301 0.06593311
-0.045531463 -0.007803826 -0.102851205 -0.0005338769 -0.07128374 -0.05525391 -0.069095105 -0.063196935
-0.083326794 -0.08958931 -0.038421907 -0.021434074 -0.0881533 0.023000931 0.080827005 0.04036822
0.09058545 0.10996838 0.06117271 -0.018432511 0.05116025 0.115699165 0.080294706 -0.06445555
-0.0024015165 0.042332154 0.07540931 0.09314795 0.11776741 -0.031472165 0.094546266 -0.040399138
-0.022447808 0.0345724 -0.048118927 0.02132511 -0.06971475 0.043255914 0.02701644 -0.04974045
0.03350886 0.019626347 0.03692805 0.094628476 0.004931329 -0.019920746 -0.005368102 -0.09511717
-0.05621461 0.0010098766 0.07785274 -0.09039665 0.11836621 0.034086876 -0.06009265 0.0036632116
0.09152916 0.001776041 0.08926725 0.031052906 0.1257203 -0.05905744 -0.011071208 -0.08331566
0.045830812 0.05420241 -0.01295312 0.10258645 0.123615466 -0.090730004 -0.09042012 -0.06430406
00000000: 8b04 3b3d 9100 7fbc 9e50 fd3c 3429 53bd
00000010: f4b2 6e3c 2621 083d 3f01 5d3c 6b7c b7bd
00000020: a8f6 17bd a32f 253c c891 7d3d 6a0e 3fbd
00000030: e609 73bd 3db4 6abc 2eba 9dbc 017f ac3d
00000040: e012 74bd c72b 013e f613 e63d cb4f c93d
00000050: f6e8 143d 7378 d23b a15a f33c f007 873d
00000060: 337f 3abd 3db7 ffbb a7a3 d2bd dff3 0bba
00000070: 36fd 91bd ed51 62bd bc81 8dbd 656d 81bd
00000080: 3da7 aabd 9a7a b7bd 4a60 1dbd 8396 afbc
00000090: b889 b4bd 736c bc3c a188 a53d 2659 253d
000000a0: dd84 b93d 1a37 e13d 3c90 7a3d c7ff 96bc
000000b0: 698d 513d aff3 ec3d 8d71 a43d 4501 84bd
000000c0: c362 1dbb 7b64 2d3d 3270 9a3d 5ac4 be3d
000000d0: 0a30 f13d f5e8 00bd 79a1 c13d 9179 25bd
000000e0: 77e4 b7bc ca9b 0d3d 5a18 45bd ffb1 ae3c
000000f0: 9bc6 8ebd 1d2d 313d 9551 dd3c a4bc 4bbd
00000100: 9640 093d 6fc7 a03c de41 173d 93cc c13d
00000110: fc96 a13b d530 a3bc e7e6 afbb cacc c2bd
00000120: 4a41 66bd d65d 843a 4271 9f3d e121 b9bd
00000130: fc69 f23d ae9e 0b3d b623 76bd 7e12 703b
00000140: a473 bb3d 0cca e83a bfd1 b63d aa62 fe3c
00000150: d3bc 003e 37e6 71bd 0364 35bc 67a1 aabd
00000160: 17b9 3b3d 5903 5e3d 5339 54bc d818 d23d
00000170: 1b2a fd3d a7d0 b9bd 2f2e b9bd d9b1 83bd

fc5.weight f4 [64, 96]
0.09909866 0.0030611411 -0.054974433 0.0146535095 0.050898902 -0.05494923 -0.02401183 0.051843703
0.07381779 0.022546541 0.07426277 0.08428948 0.09061795 0.05612971 -0.07629507 0.10874657
-0.05264357 0.056208204 0.037354175 0.0034902024 0.08193329 0.023033705 -0.04233544 0.1192587
0.049370933 0.08873713 0.037747744 -0.0064486926 0.069651335 0.107616656 -0.09049349 -0.10105311
-0.034593627 0.041331258 0.062099177 0.01908341 -0.054285508 -0.07519318 0.0102597205 -0.065530375
0.04016473 -0.037430163 0.066373415 -0.08010331 0.025467413 -0.053268734 0.111822486 0.05263707
0.101772316 -0.029421482 -0.041438606 -0.02618075 0.08790974 -0.005544825 0.06913263 0.09912392
0.02447986 0.009856672 -0.03456034 0.002799812 -0.06106847 -0.040839322 0.02341143 -0.035103805
0.0036470678 -0.059741914 0.052445278 -0.016400542 -0.09816164 -0.01578958 0.025319617 -0.011264328
0.054863855 -0.07514487 0.07396967 -0.09603019 0.022874804 -0.014964144 -0.09795823 -0.041075766
0.06936128 0.058349606 0.050611604 -0.03869726 -0.0059585646 0.04455333 -0.073671624 0.022856014
-0.012243333 0.11576452 -0.0071415156 0.007058276 -0.055845283 -0.08531774 -0.085943505 -0.07944581
0.09199868 0.028732816 0.0064812433 0.09266665 0.011092311 0.08461312 0.052109074 -0.0654663
0.0070964154 -0.07920212 0.0251533 -0.010786593 -0.1001366 0.0046492694 -0.07710873 0.07311843
0.08962501 0.04770652 0.04671752 -0.052458145 -0.010659694 -0.072115354 0.06900137 -0.019611891
0.07135649 -0.025372043 0.0040972494 0.09193291 0.0787552 0.0839695 -0.016808191 -0.011418408
-0.028035605 -0.02044684 -0.030050626 0.004409132 0.07472714 0.050682027 -0.087636076 -0.011956418
-0.06324841 -0.009714335 0.041933 -0.0617709 -0.06591336 -0.039551318 0.018622084 0.054166656
-0.089791454 0.011430684 -0.083169416 0.101777874 -0.07379977 -0.058898374 0.10289109 0.07628388
-0.09595054 -0.039202858 -0.09636567 0.08428853 0.0020997494 0.023027916 -0.03251916 -0.051979158
0.06721518 -0.025915895 -0.018842265 0.08401434 0.0769542 -0.05993522 -0.077724315 0.05133382
0.025352703 0.012008641 0.10151847 -0.07980591 0.069590405 -0.033679396 0.053038236 -0.06371219
0.10641262 0.013711827 -0.03425585 0.016864799 0.10467465 -0.056894656 -0.0022001795 -0.09517799
0.054225713 0.02924912 -0.04369806 -0.007513597 0.1064669 0.026684877 -0.060662284 0.008842439
-0.042735256 0.0196122 -0.07877403 -0.03640668 0.06308158 -0.045744464 0.018665774 0.017133202
0.045953758 0.020944022 0.04691037 -0.048279393 -0.05487005 0.014399212 0.06967523 0.07099411
0.04807688 -0.03250791 -0.033054773 -0.06234457 0.07828772 -0.039274372 0.048268393 -0.053823948
-0.098559745 0.069721274 0.025867771 -0.0100882165 -0.10095768 -0.047098245 0.07549529 -0.0990415
0.0816051 -0.064564936 -0.08119625 0.090476446 -0.08282881 -0.022492824 -0.05010742 0.070239365
-0.049809024 0.005157216 -0.11066112 0.024357533 -0.017316263 -0.020453984 -0.020464156 0.08949325
-0.07495059 -0.0022073279 -0.06302198 -0.061399527 -0.025453601 -0.07196247 -0.06489236 0.05099915
0.08778614 0.03283667 0.04052055 0.046552166 -0.019410342 0.04369161 -0.029439887 -0.087958336
00000000: 3df4 ca3d 6d9d 483b df2c 61bd 4615 703c
00000010: 5e7b 503d 7212 61bd 75b4 c4bc 105a 543d
00000020: c82d 973d 86b3 b83c 1417 983d f69f ac3d
00000030: e795 b93d 44e8 653d 9740 9cbd 86b6 de3d
00000040: c9a0 57bd 933a 663d b100 193d e1bb 643b
00000050: a4cc a73d 2eb1 bc3c ed67 2dbd e83d f43d
00000060: 2d39 4a3d d0bb b53d 619d 1a3d 8e4f d3bb
00000070: 5ca5 8e3d 1f66 dc3d a754 b9bd eff4 cebd
00000080: 0cb2 0dbd f74a 293d b55b 7e3d d054 9c3c
00000090: 7b5a 5ebd e2fe 99bd 6318 283c ca34 86bd
000000a0: c683 243d 5f50 19bd c9ee 873d 340d a4bd
000000b0: 09a1 d03c 5130 5abd 3003 e53d f899 573d
000000c0: 016e d03d 5205 f1bc 87bb 29bd 0379 d6bc
000000d0: 060a b43d 5db1 b5bb 6995 8d3d 7b01 cb3d
000000e0: fd89 c83c e17d 213c 258f 0dbd 0d7d 373b
000000f0: ef22 7abd 2247 27bd 54c9 bf3c 02c9 0fbd
00000100: a503 6f3b f0b3 74bd dcd0 563d 6e5a 86bc
00000110: f808 c9bd 2659 81bc 166b cf3c 048e 38bc
00000120: ecb8 603d 8ee5 99bd 697d 973d 7aab c4bd
00000130: f163 bb3c 2b2c 75bc 539e c8bd 103f 28bd
00000140: 490d 8e3d ffff 6e3d 1d4e 4f3d 0581 1ebd
00000150: 1040 c3bb 8d7d 363d 26e1 96bd 893c bb3c
00000160: 4398 48bc f315 ed3d 6003 eabb 1c49 e73b
00000170: 06be 64bd 11bb aebd 2603 b0bd 7cb4 a2bd
00000180: ce69 bc3d 1561 eb3c 9c60 d43b 03c8 bd3d
00000190: 86bc 353c a549 ad3d 5370 553d 3213 86bd
000001a0: 0c89 e83b b934 a2bd 4b0e ce3c 40ba 30bc
000001b0: 6b14 cdbd e658 983b 2feb 9dbd 1ebf 953d
000001c0: 518d b73d e967 433d df5a 3f3d 5ade 56bd
000001d0: ffa5 2ebc 37b1 93bd 9750 8d3d 1ea9 a0bc
000001e0: 5a23 923d 08d9 cfbc 3842 863b 5247 bc3d
000001f0: 684a a13d 34f8 ab3d 55b1 89bc 4614 3bbc
00000200: edaa e5bc 2280 a7bc bb2c f6bc 7b7a 903b
00000210: 8b0a 993d f597 4f3d 8b7a b3bd dae4 43bc
00000220: 6288 81bd e028 1fbc f0c1 2b3d 7c03 7dbd
00000230: 95fd 86bd 9000 22bd 578d 983c dbdd 5d3d
00000240: 95e4 b7bd c347 3b3c ba54 aabd eb70 d03d
00000250: 5524 97bd 6c3f 71bd 90b8 d23d b93a 9c3d
00000260: b781 c4bd 2d93 20bd 5d5b c5bd 779f ac3d
00000270: f39b 093b 0aa5 bc3c d032 05bd 19e8 54bd
00000280: 1da8 893d 924d d4bc 185b 9abc b60f ac3d
00000290: 2a9a 9d3d a27e 75bd ed2d 9fbd 6943 523d
000002a0: 79b0 cf3c e4bf 443c eae8 cf3d 4871 a3bd
000002b0: 6a85 8e3d 68f3 09bd 9f3e 593d 897b 82bd
000002c0: dcee d93d 92a7 603c dd4f 0cbd 0c28 8a3c
000002d0: aa5f d63d 5f0a 69bd e330 10bb aeec c2bd
000002e0: c81b 5e3d da9b ef3c bdfc 32bd 9f34 f6bb
000002f0: 510b da3d 3e9a da3c 0479 78bd e1df 103c
00000300: 2a0b 2fbd c4a9 a03c 4754 a1bd 2c1f 15bd
00000310: ea30 813d 8c5e 3bbd f7e8 983c ee5a 8c3c
00000320: 023a 3c3d cc92 ab3c 1725 403d 9dc0 45bd
00000330: 6bbf 60bd acea 6b3c e3b1 8e3d 5c65 913d
00000340: 43ec 443d 0427 05bd 7164 07bd 055d 7fbd
00000350: 5055 a03d 2ade 20bd 14b5 453d 8076 5cbd
00000360: b1d9 c9bd 07ca 8e3d a6e8 d33c 0c49 25bc
00000370: e6c2 cebd 17ea 40bd 469d 9a3d 45d6 cabd
00000380: 9320 a73d 9f3a 84bd 384a a6bd b74b b93d
00000390: 27a2 a9bd df42 b8bc 703d 4dbd a8d9 8f3d
000003a0: 8c04 4cbd ddfd a83b 4ca2 e2bd 7389 c73c
000003b0: d6da 8dbc 1d8f a7bc 72a4 a7bc 3d48 b73d
000003c0: b27f 99bd d1a8 10bb ab11 81bd 127e 7bbd
000003d0: 1284 d0bc 0f61 93bd 49e6 84bd 7ce4 503d
000003e0: 38c9 b33d be7f 063d e0f8 253d 7cad 3e3d
000003f0: 7002 9fbc f9f5 323d eb2b f1bc 8023 b4bd

fc5.bias f4 [64]
0.050003696 -0.037939746 0.011323021 0.04277286 0.0061709997 0.081963405 -0.034525957 0.029794743
-0.0237444 -0.013326518 -0.019471968 -0.09706295 0.07204584 0.011195813 -0.09471207 0.0060821623
-0.007399483 -0.020282079 -0.033333775 -0.069799185 -0.07007488 0.12637095 -0.06168411 0.016969642
-0.0008304983 0.08843632 0.03107378 0.08715079 -0.0075137503 0.111400425 0.09785956 -0.041926045
0.06992884 -0.0193991 0.08272778 0.015563396 0.06335115 -0.07267557 0.075476244 0.048379734
-0.006968261 0.080907896 -0.009415371 0.010522357 0.12333095 -0.057493333 0.026690256 0.040557615
-0.093274094 0.109919675 -0.07207291 -0.024885792 0.09270897 0.058995545 -0.0648306 -0.0054418803
-0.09646642 -0.034579333 -0.061646927 -0.069946945 0.010950815 0.10103699 -0.0109963305 0.020597557
00000000: add0 4c3d b566 1bbd 3184 393c 9832 2f3d
00000010: 1936 ca3b 6edc a73d 176b 0dbd 1b14 f43c
00000020: 9e83 c2bc 7857 5abc ad83 9fbc f1c8 c6bd
00000030: c58c 933d a56e 373c 67f8 c1bd e04c c73b
00000040: 5d77 f2bb 9a26 a6bc ff88 08bd e0f2 8ebd
00000050: 6b83 8fbd 6367 013e 7aa8 7cbd eb03 8b3c
00000060: ccb5 59ba 1a1e b53d 718e fe3c 1d7c b23d
00000070: e835 f6bb e825 e43d 986a c83d a5ba 2bbd
00000080: da36 8f3d ddea 9ebc 2f6d a93d 9dfd 7e3c
00000090: 3fbe 813d eed6 94bd 4a93 9a3d d429 463d
000000a0: 0356 e4bb 0ab3 a53d ee42 1abc f765 2c3c
000000b0: f094 fc3d 217e 6bbd 86a5 da3c be1f 263d
000000c0: 7d06 bfbd 911d e13d f69a 93bd 4add cbbc
000000d0: 33de bd3d 50a5 713d e8c5 84bd cd51 b2bb
000000e0: 3090 c5bd 0fa3 0dbd 7d81 7cbd 5840 8fbd
000000f0: 0c6b 333c 7bec ce3d f429 34bc 35bc a83c

fc6.weight f4 [64, 64]
0.13716334 0.09438505 -0.0017940572 -0.012876043 0.02656665 -0.08437234 -0.009994984 0.104363754
0.041596577 0.10416201 -0.028608441 -0.10039732 -0.029503286 0.10468769 0.039117143 -0.063205026
0.12935434 0.096765205 0.11017843 -0.059700206 -0.04314791 0.12518096 -0.079653665 -0.055063635
0.010943533 -0.10158356 0.056536693 -0.029769912 0.10517618 0.13670915 0.11823695 0.078899585
0.023458874 -0.0022559017 0.09189149 0.120748036 0.059483636 -0.082663044 0.13384552 -0.006960079
-0.045091316 -0.047834575 0.12066886 -0.06682138 0.11563247 -0.07136804 0.011907486 0.057542495
-0.09589358 -0.037479997 -0.09758295 -0.11013383 0.0766178 0.042177185 -0.019374227 0.12271725
-0.11466588 0.09960359 -0.124102786 0.13108516 0.0016947787 -0.03318382 -0.02447015 0.014766049
0.10328932 0.1440841 0.11506354 -0.009072427 0.022027751 0.04098774 0.0640323 -0.029396376
-0.0056680376 -0.012417063 0.06765017 -0.10616003 0.013421973 -0.07265671 -0.050846636 0.048737347
0.0065988903 0.09192911 0.035921134 -0.11233479 -0.008982032 0.020831995 -0.060140952 -0.056412723
0.0076410244 0.07546454 -0.07653268 -0.0583095 0.04310276 0.026281286 0.12893409 -0.09439002
-0.028133571 -0.0069639385 -0.0048914347 0.039052866 0.052776784 -0.10849704 0.07797931 -0.038011655
-0.10462622 -0.058736205 -0.109399244 0.14684588 0.08160592 -0.068491444 0.14814712 -0.038876507
-0.05309193 0.13416453 0.069326594 -0.07829109 0.024832899 0.11828801 0.025119903 -0.021063345
-0.08602828 -0.06697859 0.02468045 -0.0230331 -0.06919876 0.05733665 0.038874328 -0.017828293
0.05697826 -0.087011166 -0.09121452 0.09889747 -0.0025622991 -0.029643042 -0.01273334 -0.047900476
-0.07177406 -0.0454517 -0.016795814 -0.047006607 0.033959538 -0.05143071 -0.05794792 -0.031500936
0.060570206 -0.10367708 -0.04777562 0.10847637 -0.087349005 0.03459748 0.07602172 0.09236239
0.14047647 0.115200445 0.09834143 0.03669207 0.03595735 0.13788085 0.08948615 0.12700893
0.133397 0.03166668 0.08794476 -0.0018480476 0.14506958 0.06639916 0.059073452 -0.09850916
-0.10191688 -0.05078135 0.04592991 -0.0062121027 0.0097751105 0.11402048 0.06720234 0.034087505
0.03704673 0.13828811 -0.12451732 0.10923724 -0.029582812 0.015710488 -0.043318048 -0.038031016
0.115532026 0.031585023 -0.095513165 0.08368805 -0.10695451 -0.0019403143 0.06769098 -0.031071166
-0.11795349 0.057552185 0.10281063 -0.04861124 -0.06678742 -0.12543306 0.0761376 -0.076839484
0.016861299 0.097409084 0.06856117 0.03487052 -0.09947427 -0.046351638 0.05345221 -0.056045644
0.024294466 -0.041905463 -0.018314645 -0.0051628947 -0.032334507 -0.0597717 -0.07875292 0.03316316
0.07690739 0.062020715 0.034761325 0.11603743 -0.055947006 0.10785247 -0.091035195 0.048107266
0.0872606 0.09331094 0.044386435 -0.12390991 0.06810748 0.044777423 -0.06797166 -0.067625254
0.102332294 -0.058768917 -0.10104594 -0.09754315 -0.07453055 0.003361851 0.083247095 0.057550028
0.09559341 0.072819166 -0.08489074 0.08696036 -0.12235048 0.10720919 0.07954018 0.11583859
0.03933619 0.037463844 -0.044721752 0.109111905 0.06634397 0.0040196404 0.041333556 0.010552058
00000000: 8c74 0c3e f34c c13d 9226 ebba 0af6 52bc
00000010: 4ea2 d93c 68cb acbd 00c2 23bc aabc d53d
00000020: 2c61 2a3d e452 d53d 405c eabc 1c9d cdbd
00000030: e0b0 f1bc 8066 d63d 4c39 203d a371 81bd
00000040: 7775 043e d62c c63d 3ba5 e13d 3488 74bd
00000050: ddbb 30bd 702f 003e 7621 a3bd 688a 61bd
00000060: 814c 333c 0b0b d0bd 0593 673d 08e0 f3bc
00000070: 9c66 d73d 7cfd 0b3e 3726 f23d 1b96 a13d
00000080: d32c c03c c0d7 13bb 9b31 bc3d bf4a f73d
00000090: 1da5 733d 3e4b a9bd cd0e 093e 6011 e4bb
000000a0: acb1 38bd 30ee 43bd 3c21 f73d a6d9 88bd
000000b0: b7d0 ec3d 6829 92bd 9e17 433c aeb1 6b3d
000000c0: da63 c4bd a084 19bd 92d9 c7bd d88d e1bd
000000d0: cbe9 9c3d fcc1 2c3d b3b6 9ebc 2e53 fb3d
000000e0: f2d5 eabd f8fc cb3d 9a29 febd 303b 063e
000000f0: 5623 de3a c2eb 07bd a075 c8bc 4ced 713c
00000100: 5a89 d33d c88a 133e 6fa6 eb3d 84a4 14bc
00000110: 8b73 b43c c3e2 273d 5e23 833d abd0 f0bc
00000120: f2ba b9bb f070 4bbc 2c8c 8a3d 6e6a d9bd
00000130: d6e7 5b3c 0bcd 94bd 9044 50bd d0a0 473d
00000140: 813b d83b 5445 bc3d 0a22 133d c80f e6bd
00000150: 5f29 13bc dca7 aa3c 5c56 76bd 0711 67bd
00000160: 8f61 fa3b 278d 9a3d 2abd 9cbd f1d5 6ebd
00000170: 858c 303d da4b d73c 4c07 043e 8e4f c1bd
00000180: 6078 e6bc c031 e4bb 5448 a0bb e6f5 1f3d
00000190: 782c 583d b233 debd 9eb3 9f3d 1cb2 1bbd
000001a0: 4646 d6bd 6095 70bd b60c e0bd c45e 163e
000001b0: 0121 a73d 3e45 8cbd e1b3 173e f93c 1fbd
000001c0: ec76 59bd 6d62 093e 1afb 8d3d 1457 a0bd
000001d0: 5d6e cb3c fc40 f23d 41c8 cd3c 098d acbc
000001e0: 982f b0bd 122c 89bd a82e ca3c e9af bcbc
000001f0: 14b8 8dbd d6d9 6a3d b03a 1f3d a40c 92bc
00000200: 0962 693d e932 b2bd aece babd c28a ca3d
00000210: 3fec 27bb f7d5 f2bc 809f 50bc 4a33 44bd
00000220: 47fe 92bd 902b 3abd 6097 89bc 008a 40bd
00000230: 2819 0b3d 02a9 52bd cc5a 6dbd 2007 01bd
00000240: 7718 783d a654 d4bd 5eb0 43bd dc28 de3d
00000250: 09e4 b2bd 16b6 0d3d 47b1 9b3d 7e28 bd3d
00000260: 10d9 0f3e 36ee eb3d 3b67 c93d 6d4a 163d
00000270: 0448 133d a330 0d3e 8444 b73d a10e 023e
00000280: 3999 083e ecb4 013d 621c b43d 303a f2ba
00000290: 1f8d 143e 48fc 873d 01f7 713d 2cbf c9bd
000002a0: ccb9 d0bd 1b00 50bd 0021 3c3d e58e cbbb
000002b0: c927 203c 9283 e93d 61a1 893d 579f 0b3d
000002c0: 50be 173d 669b 0d3e f002 ffbd c6b7 df3d
000002d0: a757 f2bc 48b3 803c 446e 31bd 69c6 1bbd
000002e0: 0e9c ec3d 4c5f 013d 689c c3bd a464 ab3d
000002f0: f70a dbbd 2552 feba 92a1 8a3d f588 febc
00000300: 9991 f1bd d7bb 6b3d 618e d23d 941c 47bd
00000310: d8c7 88bd 8671 00be 08ee 9b3d 055e 9dbd
00000320: b520 8a3c 6a7e c73d cc69 8c3d 64d4 0e3d
00000330: 2bb9 cbbd 37db 3dbd b4f0 5a3d 1e90 65bd
00000340: 3005 c73c 10a5 2bbd 9808 96bc 802d a9bb
00000350: 3071 04bd 2cd3 74bd 3649 a1bd 18d6 073d
00000360: 9f81 9d3d 6f09 7e3d e461 0e3d 08a5 ed3d
00000370: b028 65bd c1e1 dc3d a970 babd 200c 453d
00000380: afb5 b23d ce19 bf3d 8dce 353d 7bc4 fdbd
00000390: ef7b 8b3d 8868 373d ba34 8bbd 1c7f 8abd
000003a0: 9893 d13d adb7 70bd 2cf1 cebd b4c4 c7bd
000003b0: 79a3 98bd 8052 5c3b 747d aa3d 94b9 6b3d
000003c0: 7ac6 c33d 3722 953d 32db adbd 4618 b23d
000003d0: e392 fabd 7e90 db3d f6e5 a23d c83c ed3d
000003e0: fc1e 213d b073 193d 282e 37bd 1076 df3d
000003f0: 59df 873d 30b7 833b 604d 293d 8ae2 2c3c

fc6.bias f4 [64]
0.14917278 0.06886658 0.020449033 0.006508147 -0.095759615 -0.06756455 0.08198606 -0.009696707
0.012938282 -0.08815471 0.0630492 0.09283207 0.018929154 0.03317493 0.06408549 0.018274099
-0.050989106 0.06280822 0.120788164 -0.10503683 -0.107094735 0.08053126 0.064413406 -0.115633145
0.09277528 -0.10017547 0.086875364 0.0954458 0.06332712 0.045627255 0.063601166 0.13282566
-0.07235979 0.13580513 0.047335923 -0.015969027 0.14548093 -0.098342076 0.12675366 -0.056211807
0.11249253 -0.063303456 0.08847884 -0.062260643 0.024210898 -0.12099096 -0.06708656 -0.044484455
-0.03894794 0.12367108 -0.044850886 0.021460304 0.016905485 0.08072614 0.08143888 0.07968523
0.11292868 0.02770327 0.075618744 -0.11055678 0.00063300744 -0.040621772 0.04708091 -0.1196575
00000000: c0c0 183e ec09 8d3d bb84 a73c 4b42 d53b
00000010: 9e1d c4bd 485f 8abd 4fe8 a73d f0de 1ebc
00000020: 17fb 533c 758a b4bd f01f 813d be1e be3d
00000030: 5011 9b3c 6fe2 073d 413f 833d 90b3 953c
00000040: f4d9 50bd 99a1 803d c95f f73d 8d1d d7bd
00000050: 7c54 dbbd 93ed a43d 2deb 833d 12d1 ecbd
00000060: f700 be3d cc28 cdbd b6eb b13d 1679 c33d
00000070: a6b1 813d a5e3 3a3d 5441 823d 7303 083e
00000080: 5f31 94bd 8010 0b3e 50e3 413d 7ad1 82bc
00000090: f4f8 143e 9267 c9bd b6cb 013e 5a3e 66bd
000000a0: 7c62 e63d 3ea5 81bd 6534 b53d 0405 7fbd
000000b0: ef55 c63c 1cca f7bd ae64 89bd 5535 36bd
000000c0: e087 1fbd 4347 fd3d 90b5 37bd 85cd af3c
000000d0: 5f7d 8a3c bf53 a53d 6dc9 a63d 0332 a33d
000000e0: 2747 e73d f8f1 e23c 00de 9a3d 986b e2bd
000000f0: 69f0 253a 0463 26bd ead7 403d fe0e f5bd
